Data/best_random_params_11.pth (torch, 276180 bytes, 5 tensors)

linear1.weight f4 [128, 13]
00000000: b488 9c3e ad54 8a3e 3d61 91bd cf60 393d
00000010: ed8a 3abe 3ca1 9d3e a637 efbd f324 0ebe
00000020: b912 8cbd 1b76 293e 5955 803e b83d 7f3e
00000030: 765e 2c3e e7f9 11be fbc1 3dbe b456 01be
00000040: 91bd 903e 1fb8 dabd eb2d 323e 8d61 ddbd
00000050: bfc3 55bd 6cc8 11bd 2d3e 373b 3e3d 3fbe
00000060: 708e b23d fd85 87bd ba45 9c3e 8e30 c8bd
00000070: eff8 2dbe d285 73be b333 21be 5e73 4d3e
00000080: 8963 11be a530 083e 0892 7f3e 9e9e 7f3e
00000090: ba08 64be 7ea8 4fbd ba13 053d 2090 45be
000000a0: 139b b6bd 2b82 6ebd 1e47 8abd 5c24 56be
000000b0: 3817 a63e a767 89be 6189 373e 4dae 413e
000000c0: ebb2 f23c 9587 3d3e 44a3 dabd 091b 453e
000000d0: 7818 81be fd6b 8a3e 0a26 45be 1592 fdbd
000000e0: 37f3 823c 6c04 12be 873e 25be e710 3fbe
000000f0: 47c9 993d 0ecf 3b3e 71c1 2fbe d850 6b3e
00000100: e510 893e cec8 973e d604 f23d d9c7 543e
00000110: fb3d 253e 4732 4cbe 0919 eabd fd9c ca3d
00000120: f218 e23d 7a3f 27be 3c2c 793e 9985 37be
00000130: a803 81bb 4615 26bd 0d79 7b3e b638 6bbe
00000140: 4bdb 04be cfea 98be 9319 50be 44f7 8c3e
00000150: 3a96 d0bd a48b bb3d 7e55 bbbd 7546 41be
00000160: 9698 6bbe 0a65 8e3e 0f0b 1c3e 7d5c 06be
00000170: d8df 55be c9e6 50be 86f7 c33d 8d0d 70be
00000180: 243d 7ebe d9cd bbbc 83d1 ac3d 46f9 ddbc
00000190: d0b6 05be eb49 e03c b4ec 923e d416 033d
000001a0: f9b5 883d d000 743e 86a8 e2bd e203 353c
000001b0: 17fc 8e3e 12d6 94bd 2aa6 6b3e 9b5f 1fbe
000001c0: 53d5 273e f1c4 b1be aa10 c73d a210 9bbd
000001d0: 9a1e e7bd d869 75bd 9814 c0bd 805c 88be
000001e0: ca3b 643e c9f4 05be ea45 81be 714b 9bbd
000001f0: d89e 08be a796 953e b4db f13d af6d bcbd
00000200: adaa f03d 6ae0 79be b972 373e e9f8 83be
00000210: 644b 8fbc 717b a1be 6316 9b3e 6458 a6bd
00000220: c355 0cbe dc93 4c3e 4f29 b23d 3c57 8b3e
00000230: a179 6abe 9e69 87be f233 11be c0e2 003e
00000240: bf6d b03d 9961 823c 189f 49be 2063 4f3d
00000250: 6906 90be 8202 d03d aa0e 7bbd ed12 a6bd
00000260: 925f 533e e934 8b3e 3550 4bbe 1438 673e
00000270: 18a5 a4be 491c 3c3e a990 9c3e 16b1 b6bd
00000280: d041 48be 6155 453e 8bd6 733e cdca ba3b
00000290: 264d 84be 30f2 1abe a804 74be caa4 8a3d
000002a0: 1816 5cbe 424a adbd 0505 833e 83ad 60be
000002b0: a16d 71be 0e73 88be 3dc5 da3a ccc8 413e
000002c0: 8d60 c23c 32fc 743e 6d93 cc3d 7e31 9c3d
000002d0: 2627 9dbd c4a0 443c 024d 873e 7b5a 81bb
000002e0: f7ed 403e 4adf 883d 0f0b 813e 4872 bebc
000002f0: 9ac0 d53d 0abd 803a 321d 633e 0189 21bd
00000300: 4200 d13d c51e 893e a67a 1a3d 8df4 043d
00000310: 962e 1abe 461c a1bd cee1 ab3e 5929 8c3e
00000320: f19c f4bc 9664 9fbe dd66 55be f648 97be
00000330: f29e b8be 10c5 b8bc a3f7 48be b4b8 3bbe
00000340: a833 c9bd b402 87be 10a0 403e 9052 64be
00000350: 2687 913d 7629 193e d23d 74be f626 fbbd
00000360: 0f85 df3d 8edb 06be 59d5 6cbe ee44 933d
00000370: cb53 9c3e 35e0 ae3d e9a9 eabd 89bf 12be
00000380: 6165 e93d 2432 69be f4bd e2bd 01c5 ce3b
00000390: 2dd5 133e fad4 dbbd 816a f8bc 5220 953d
000003a0: af2b d6bd 1485 42be c727 68be 5190 6a3e
000003b0: bbf8 693e 7810 75bd 4ea6 a33d 1fa4 2dbc
000003c0: 837f bc3d fb70 38be 82f5 5abe c996 543e
000003d0: 9bfe 6f3e e06e 0a3d 2d5c 80bd 0491 a93e
000003e0: b827 7fbe 8ed2 763e c001 98be e073 b4bd
000003f0: eeb1 453d 3a5b 59be ada6 ac3d bb9e b3bc
0.30573046 0.27017727 -0.07098625 0.04525834 -0.18217058 0.30787075 -0.11680536 -0.13881283
-0.068395086 0.1654896 0.25065115 0.24925888 0.16832909 -0.14255486 -0.18531029 -0.12630731
0.28269628 -0.106796496 0.17400329 -0.10809622 -0.05218863 -0.035591528 0.0027960644 -0.18675706
0.08718574 -0.06617353 0.30521947 -0.09774886 -0.16989492 -0.23781517 -0.15742378 0.2006354
-0.14198126 0.13299806 0.2495805 0.24962851 -0.22268954 -0.050697796 0.032489516 -0.1929326
-0.08916297 -0.058229607 -0.06751846 -0.20912308 0.3243959 -0.26836893 0.179235 0.18914147
0.02962633 0.18508752 -0.10675672 0.19248594 -0.2521398 0.27035514 -0.19252792 -0.123813786
0.015985114 -0.142595 -0.16137134 -0.18658791 0.07509094 0.18340704 -0.17163636 0.22980058
0.26770702 0.2964539 0.11817329 0.20779361 0.16136925 -0.19941054 -0.11430556 0.098932244
0.11039914 -0.16332808 0.2433328 -0.17922057 -0.0039372034 -0.04054763 0.24557896 -0.22970852
-0.12974279 -0.29866645 -0.20322256 0.275324 -0.101849034 0.09157494 -0.09147166 -0.18874533
-0.23007426 0.27811462 0.15238594 -0.13121219 -0.20886171 -0.20400538 0.09568696 -0.23442669
-0.24828011 -0.022925304 0.08438399 -0.027096402 -0.13058019 0.027378997 0.28696215 0.032004192
0.066753335 0.23828435 -0.110672995 0.011048289 0.27926704 -0.07267393 0.23012605 -0.15563814
0.1638997 -0.34720567 0.09719975 -0.07571532 -0.11285134 -0.059915394 -0.09378928 -0.26633072
0.22288433 -0.1308166 -0.25248653 -0.07582749 -0.13341844 0.292165 0.11809483 -0.09200608
0.11751304 -0.24402013 0.17914857 -0.2577584 -0.017492004 -0.3153949 0.30290517 -0.08122328
-0.1370459 0.19978279 0.08699285 0.27214992 -0.2289796 -0.26447767 -0.14179972 0.12586498
0.086146824 0.015915679 -0.19689596 0.050631642 -0.2812989 0.10156728 -0.06129328 -0.081090786
0.20641926 0.27188805 -0.19854815 0.22579986 -0.32157207 0.18370165 0.30579117 -0.08920495
-0.19556355 0.1927085 0.2381231 0.0057004453 -0.2584011 -0.1513145 -0.23829901 0.06769712
-0.21492803 -0.08461429 0.25589767 -0.2194119 -0.23576976 -0.2665028 0.0016690862 0.18924254
0.02372768 0.2392433 0.09989057 0.076266274 -0.076734826 0.01200122 0.2642594 -0.0039475537
0.18840776 0.06683214 0.2520375 -0.023247853 0.104371265 0.0009821963 0.22179106 -0.039437298
0.10205127 0.26781288 0.037714623 0.032459784 -0.15056834 -0.07866721 0.33570713 0.27375296
-0.029859992 -0.31131428 -0.2084002 -0.29547852 -0.36058766 -0.022554904 -0.19625716 -0.18332177
-0.09824306 -0.2636925 0.18811059 -0.2229712 0.07105856 0.14957222 -0.23851708 -0.122632906
0.10914051 -0.13169691 -0.2312826 0.07190882 0.3053268 0.08538858 -0.11458189 -0.14330877
0.113962896 -0.22773033 -0.11071387 0.006310106 0.14436789 -0.107339814 -0.030324223 0.07281555
-0.10457551 -0.18996078 -0.22671424 0.22906615 0.2284879 -0.05983016 0.079907045 -0.010598212
0.092040084 -0.18011849 -0.21382716 0.20760645 0.23436968 0.033797145 -0.06267581 0.3311845
-0.24917495 0.24103758 -0.29688835 -0.08811164 0.04826539 -0.21226206 0.084302284 -0.021926275

linear1.bias f4 [128]
00000000: 8ea0 acbc 787c 58be b6a8 c5bd 6e8a 263d
00000010: e5fa aabc 715d 0d3e d821 d33c 69f6 4cbe
00000020: a9b4 08be ecd8 a6bd d397 5e3e 7cdd 493e
00000030: 36ee 31be 95b1 0abe ef40 6cbe b9f3 0c3d
00000040: d8ce 06be 97df f33d abc3 71bd 682d 923e
00000050: 0011 263e 35b4 a3bd 884f e1bd fd59 fb3d
00000060: feee 383d 9050 d03d 8f31 b33d c6cd 2ebb
00000070: 85b8 d63d dde2 76be d57c 2fbe a7bc 99bd
00000080: 1272 4fbe 7214 853a 0b43 02be 1f3d 293d
00000090: c475 ceba 2e0e b0bd dbcc 83be 7469 35be
000000a0: 163e 923c 61f9 ddbc 0296 2cbd b75a 3abe
000000b0: 69ec 3cbe c561 8b3e 5507 c1bd 47ec 6d3e
000000c0: 2158 69bd 9ff9 24be 1ac9 89be 5342 b33d
000000d0: c180 7a3c 5a5a e5bc 4d4d 93bd 6de9 cfbd
000000e0: 49bc 75be ca3b 353c 7aef 58bc 9260 7f3e
000000f0: 9f32 a83a 95f6 eabd 517f 2fbd 3642 edbd
00000100: a520 3e3e 3398 4abe 4560 f2bd dae8 02be
00000110: c385 a3bd 391a 883e a004 6dbe 7806 8b3d
00000120: 15b1 7bbe feb1 dbbb 1134 e1bd f949 203d
00000130: 9b20 ee3d 4f57 87bd 88f8 883e 2488 ac3d
00000140: cd5a 273e ad27 993c 859c 4d3e 3ad8 463e
00000150: bd32 7fbe 4fa1 4cbe a0f3 dcbd 8a5f f7bd
00000160: d698 78bd f68b 023e 9c22 7bbe 874c 9a3e
00000170: a67a e03d 4ac5 d43c a689 7a3c 632f 5bbe
00000180: 52de c1bd 39e3 103e 33f8 f43d 8b6e 543d
00000190: dd27 97bc c03b 33be ae18 503e b129 cd3c
000001a0: 9816 10be 624e db3d 5713 3f3b 5d8b 953e
000001b0: cc41 28be d1d6 02be 5499 8b3e 2c61 09be
000001c0: 9027 fc3d 3761 2bbe c674 84be 63f8 27be
000001d0: 9c28 063e 14be 52be 78be 3b3d 036e 4cbd
000001e0: dd12 43be a9bd 203e dd06 cfbd 76bb ffbc
000001f0: 6619 1e3e d445 383c 1aed 56be 106a 173e
-0.021072652 -0.21141231 -0.0965132 0.04065936 -0.020871589 0.13805176 0.025772974 -0.20015873
-0.13350166 -0.08146843 0.21737604 0.19713396 -0.17376027 -0.13544305 -0.23071645 0.03441212
-0.13164842 0.11907881 -0.059024494 0.28550267 0.16217422 -0.07993356 -0.110014975 0.12273023
0.045149796 0.10171616 0.08749687 -0.0026672943 0.10484413 -0.24109979 -0.17137463 -0.07506686
-0.20258358 0.0010153188 -0.12720887 0.041318055 -0.001575165 -0.085964546 -0.2574223 -0.17716008
0.01785187 -0.027096452 -0.042135246 -0.18198667 -0.18449558 0.2722303 -0.094252266 0.23234664
-0.056968812 -0.16110848 -0.2691124 0.08752885 0.015289486 -0.027997185 -0.07192478 -0.10151944
-0.23997606 0.011061618 -0.013240689 0.24939182 0.0012832469 -0.11472813 -0.042846028 -0.11584894
0.1856714 -0.19784622 -0.11834768 -0.12784138 -0.079844974 0.26582506 -0.23146296 0.06788343
-0.2457927 -0.006704568 -0.10996259 0.039133046 0.11627313 -0.0660845 0.26752114 0.08424404
0.16343231 0.018695677 0.20079239 0.19418421 -0.24921699 -0.1998341 -0.10788655 -0.120787695
-0.06069263 0.12748703 -0.24524921 0.3013651 0.10960893 0.025972981 0.015291607 -0.21404795
-0.09466232 0.14149179 0.11961403 0.051863234 -0.018451625 -0.17503262 0.20321915 0.025044294
-0.14071119 0.1070831 0.0029155815 0.29207888 -0.1643135 -0.12777258 0.27265418 -0.13415974
0.123122334 -0.16736303 -0.2587034 -0.16403346 0.13101429 -0.20580322 0.045835942 -0.049909603
-0.19050165 0.1569735 -0.10108731 -0.031217318 0.15439376 0.011247117 -0.20988885 0.14786553

linear2.weight f4 [512, 128]
00000000: 1f82 5c3b 35f2 163c 1c5c 9f3d 5aa4 c33d
00000010: 6415 90bd 6832 44bd b92d aebc e12f 833c
00000020: b76c 053e c2b8 14bd 36dd b03d 73b7 6ebd
00000030: 8c0a 843d 941b 4bbb 6efe 43b9 b274 d3bd
00000040: fd8e 7fbd 1f1b 0b3d a38b a2bd 8498 873b
00000050: 5065 56bc d2e8 583d 1290 f0bd 05d8 8cbd
00000060: 79ae c63d ef35 69be 27bc 5c3d c016 273d
00000070: 532b 5abd 3516 c8bd f412 a73b 7bac c13d
00000080: 6db5 8e3d c04b 92bc 550a 6c3d 0466 9bbb
00000090: 0841 4d3d 96ef 50bd ac44 36bc a803 b9bd
000000a0: 4615 d1bc 1840 9f3d 60cb 1b3b e51f e2bc
000000b0: c4d4 92bd e24e 8bbd ed47 4bbc 4a6c 2f3d
000000c0: 2d86 5cbd aa22 81bd 5dbf 64bc 6bbf 513d
000000d0: a855 f036 0d34 4fbd e7de db3c 68d5 afbd
000000e0: 8ad5 13bd a017 303b e011 3ebd 901e b4bc
000000f0: b523 523a 1751 ce3d d5be 8d3c 66c7 c43b
00000100: 1628 893d b433 cabd 25b8 983d d5b9 ed3d
00000110: 741d 653d f3cb 5cbd 3ade 96bd 4c0d 41bc
00000120: fb9c 843d 8cd5 133d 860c 663d ffa0 fcbc
00000130: 2e9c c53d 057d 933d e552 6abd 24df 663d
00000140: 3586 753d 935e 983d 854f d4bd c3ac 4539
00000150: 55f2 c9bd 004a b73c bfa8 3dbd 5546 ba3c
00000160: 5302 f2bc 4cd3 513d ebe4 163d 05ff 49bd
00000170: 2b51 c23c 678c ddbd f383 2d3d 475b 79bd
00000180: bdfb 8ebd 91ce 433c 352d 533d 40d5 16bd
00000190: 9bdc 803d c9bf e33d 29c2 a1bd 8d3f 10be
000001a0: 0325 8dbd fabe 83bd ed92 883d 1760 a3bd
000001b0: 573b e4bc a039 803d c1c2 9d3d 71aa aa3c
000001c0: 78e1 143d e6a1 1fbd 7917 9bbd 178e c6bd
000001d0: e23d 58bb a9d2 85bc 6980 50bd aa90 adbc
000001e0: 7c09 32bd 5510 543c d9e8 9cbd 73a7 123d
000001f0: 3274 4c3c 312b a23c 1033 a33d 748f 36bd
00000200: 9a56 f0bc cbe4 f23d f7ed 11be 5038 83bd
00000210: 1839 4f3d cc42 72bc 42e8 1c3d 5ce2 b8bd
00000220: 24e4 083c 8f1e babd 337f 4dbc 24d6 493d
00000230: 0603 2a3d 2cf0 e2ba 1a29 c4bc abd7 9d3d
00000240: eb3b cf3c da67 da3b a15f 2c3d 19b8 633b
00000250: 943a fb3d c8ef 04bd 6205 09bc cd39 e7bd
00000260: ce52 da3b 800c b13d 679b ba3d 2beb 0a3d
00000270: 0862 f6bc 6ace b1bc 91c4 943d 33cd 0cbd
00000280: fed5 9abd 0a76 b1bb 7373 a83d 06f5 babd
00000290: f07a c4bd 0b72 903d 0909 22be 2fb6 683a
000002a0: 49db a63c 5378 253c 5bc9 89bd 6672 1b3d
000002b0: be5f 2abc 0313 c5bc 98e4 3e3c ac95 903d
000002c0: ad3e 7cbd 7d43 16be bb06 9abd 4e90 3ebd
000002d0: 0548 513d 8956 583d bf66 d5bd 81d1 e9bd
000002e0: aa19 8fbd 964e 213d 8e89 93bd d0a1 a43d
000002f0: 55f1 403d 37b0 8bbb bbb2 08bd 8cca c8bd
00000300: 0631 433d 493f 6b3d d1f5 6b3d bac7 1f3d
00000310: bd89 d6bc 800f 253d 6d96 963d d1c5 f73c
00000320: 32c8 6d3a a482 5ebd 92ce 79bc aedb 36bd
00000330: beb9 ac3c a95a 77bc 6e4c 58bd 5f8c 203d
00000340: 2992 01bd 6250 313b 3c8a 733d eb8c ebbd
00000350: f0d7 483c d265 e23a f408 8bba 62cb 9bbd
00000360: 89e1 82bc fd90 793d 6cba 293d 9e89 66bc
00000370: 74ce b0bd 8d7b 0a3c c4dd 2bbd dbb4 cabd
00000380: 07e9 a2bd c315 c33d 5369 633d 1df3 e9bd
00000390: e235 9f3d 280d 71bc 1f96 ce3d cdf6 163d
000003a0: 3b43 2cbd 5593 b13b 4c1b 6d3c dac0 72bd
000003b0: 2a73 6dbd ec4a acbd 92ae 043c 3304 913c
000003c0: e33f d93d dece c5bd 905c a43b 7e12 53bb
000003d0: a07f 913d a69a f23c cf14 f4bc e523 923b
000003e0: 68b4 193d d691 19bd e446 50bd 2b5c 93bd
000003f0: 44c7 b53d f4df 01be b884 45bd 8b4c 0f3c
0.0033646894 0.00921302 0.0778124 0.09552832 -0.0703533 -0.047899634 -0.021262037 0.016014041
0.13029753 -0.03630901 0.08635943 -0.05828042 0.06447324 -0.003099178 -0.00018691432 -0.10324992
-0.062392224 0.03396141 -0.0793679 0.0041380543 -0.013085678 0.05295641 -0.11746229 -0.0687714
0.09701247 -0.2277448 0.053890374 0.04079318 -0.053263973 -0.09769861 0.005098695 0.09456726
0.06968198 -0.017858386 0.05762704 -0.004742386 0.050110847 -0.051009737 -0.011124771 -0.090339005
-0.02552284 0.07775897 0.0023772344 -0.0276031 -0.07169488 -0.06802155 -0.012407285 0.042827882
-0.053838897 -0.0630544 -0.01396164 0.05120794 7.162529e-06 -0.05058675 0.026839687 -0.08585626
-0.03609232 0.002686955 -0.046403766 -0.02198723 0.0008016185 0.100740604 0.01730291 0.0060052155
0.06697099 -0.09873143 0.07456998 0.1160771 0.05593629 -0.05390544 -0.07366605 -0.011782955
0.06475254 0.036092326 0.056164287 -0.030838488 0.096489295 0.0720158 -0.05720796 0.056365147
0.059942443 0.074399136 -0.1036673 0.00018851743 -0.09860674 0.022374153 -0.046303507 0.022738615
-0.029542124 0.0512269 0.036839407 -0.04931547 0.023720345 -0.10817795 0.042362165 -0.060878064
-0.06981609 0.011951105 0.051556785 -0.036824465 0.06292077 0.111205645 -0.07898361 -0.14086743
-0.06891825 -0.0643291 0.06668649 -0.07977312 -0.027860327 0.06260991 0.07703162 0.020833226
0.036347836 -0.038972758 -0.075728364 -0.0969507 -0.003299587 -0.016335802 -0.05090371 -0.021187145
-0.043466076 0.012943347 -0.076616 0.035804223 0.012478875 0.019795986 0.07968724 -0.0445704
-0.02933817 0.11860045 -0.14250933 -0.06407225 0.05059156 -0.014786433 0.038307436 -0.090275496
0.008355174 -0.0908786 -0.012542534 0.049276486 0.04150679 -0.0017314008 -0.02394538 0.07707151
0.025297126 0.006665212 0.042083386 0.0034747182 0.12267032 -0.032455236 -0.0083631 -0.112903215
0.006662703 0.08644962 0.09111672 0.03391568 -0.030076042 -0.021704871 0.072640546 -0.03437538
-0.07560347 -0.0054156827 0.08225145 -0.09128766 -0.09593761 0.07053002 -0.15823759 0.0008877245
0.020368235 0.010099488 -0.06727859 0.037950896 -0.010398803 -0.024056917 0.011651181 0.07059798
-0.06158321 -0.14674182 -0.07520815 -0.04652434 0.051094074 0.0528169 -0.10419988 -0.11416913
-0.06987317 0.039381586 -0.07203971 0.08038676 0.047105152 -0.00426295 -0.033373576 -0.09804258
0.047654174 0.0574334 0.057607476 0.039008833 -0.026188726 0.040297985 0.0735291 0.030245693
0.0009070664 -0.054323807 -0.015247004 -0.044643097 0.021084663 -0.015097299 -0.052807264 0.03919637
-0.03163353 0.0027055969 0.059458002 -0.11501487 0.012258515 0.0017272776 -0.0010607527 -0.076071516
-0.015976684 0.060929287 0.04143755 -0.014070896 -0.08633128 0.008452308 -0.04195954 -0.09897777
-0.07954603 0.09525635 0.055520367 -0.11423323 0.07773949 -0.014712609 0.10087227 0.03685646
-0.042056303 0.0054191747 0.01447184 -0.05926595 -0.057971157 -0.08412728 0.008098261 0.017702198
0.106078885 -0.096585974 0.005015917 -0.0032207067 0.07104421 0.029614758 -0.029795079 0.0044598454
0.037525564 -0.037492596 -0.050848857 -0.07195314 0.088758975 -0.12683088 -0.048222274 0.008746277

linear2.bias f4 [512]
00000000: dffc 79bc 0455 16bd c898 eebc 2231 e23d
00000010: e7b4 5fbc 7e2b 443d efac b8bd 1107 653d
00000020: 6e87 62bd 3a0d a3bd 9097 55bc 4c6e a7bd
00000030: 9a63 50bd 9318 dcbb a1d6 733d 61cd 24bc
00000040: a16b 1c3d aeab 04bd 35ba 44bd 75f7 98bd
00000050: dc9f 363d 32a7 57bc bf52 80bc e86c f23b
00000060: 8720 8a3d a9ee ce3d 90ef 633c 25d0 d9bd
00000070: 2968 eb3c cc99 c4bd b184 f9ba df7d 32bd
00000080: c847 44bd 2348 8a3d 4135 5fbd 03c6 83bd
00000090: 90c7 7f3b b73b 643c 9e7f 4abd d5bd 5b3d
000000a0: 2630 313d 8afa c2ba 6f4b 4d3d ebe9 b13c
000000b0: f4ec 6f3d 97a7 cc3c 88db 12bc d596 c73d
000000c0: 1e23 4ebb 0363 b83d 80f6 cc3d f1b7 803c
000000d0: a062 40b9 9e89 c8bd 8f81 95b9 bc10 4a3c
000000e0: 7ea5 d43d f551 54bc 72fe 1ebc f26f 09bd
000000f0: 6199 aa3d a56f 96bd 0f26 a93d 4ed2 c8bb
00000100: 38e9 683d ed7a 5c3d d775 243b b317 a8bd
00000110: b150 67bd bf6b 0c3d f184 bdbc cd42 653d
00000120: dc1c 1d3d bde7 9e3d bbbb 7bbd 7463 65bd
00000130: ea5e c1bc 8861 763d 00de e03c 08fa c0bd
00000140: 525d 84bd 0bb7 963d 7c4c c6bd 137e 3ebb
00000150: 15cc 9f3c f95f a4bd aad0 43bd 39a9 c33b
00000160: 21da 2ebc d10a 8c3d ed99 00bd a8d8 bb3d
00000170: 96e8 f139 c909 ff3c 3cf2 ac3d ddb2 a4bd
00000180: b64c 003d c28b c83b 4d0b f73c a19f 82bd
00000190: 849c 073d 5a12 043c bed2 473d 2239 413d
000001a0: 2674 db3c b982 db3d 7757 833d f4e4 20bc
000001b0: a1fb 613c b02d bdbd ceb3 843d 11fe 9f3c
000001c0: 5847 8dbd 4416 923c 30e9 893d 025e d83b
000001d0: 7e30 b93d 8998 97bc 26a8 973d 455f bbbd
000001e0: f721 c7bc aaee 71bc c553 6f3c dd10 6ebd
000001f0: c9c3 453d d349 643d 4003 8b3d f177 5ebb
00000200: bd76 ef3d 102e abbd 92e9 023d a9da 9c3d
00000210: 2b3a 973d ea71 81bd 4998 543d c677 f6bb
00000220: a0e1 80bd 489f 02bd 756c 29bd 8c1b 86bb
00000230: 7af6 e03c bada 1bbd c01b 2cbd a4e2 21bc
00000240: 3315 e4bc 5fd8 ef3c b424 213c aa32 f9bc
00000250: 809f 89bc c04e b7bc d2df ca3d ca29 4cbc
00000260: 38ea 9e3b c28d 9abd 4b27 04bd 5801 97bc
00000270: d546 93bd 1c92 b6bb c30b 343d 9b2a aabd
00000280: 2957 763b ea77 97bc 8f9a 3fbd ae75 a63c
00000290: d93d 98bd bfef f9bc 8990 003b 7736 753d
000002a0: 5f91 943d 530a 9dbc c844 4abd 3759 343d
000002b0: 7362 9c3d 538b 0e3c abb5 bf3c ebd8 9e3d
000002c0: 121d 51bd 9fe6 86bd c009 91bb 52a6 ccbc
000002d0: f79b 8cbd dcf6 7b3d 9233 613d dded 47bd
000002e0: 46bb 813d b250 603d c3d6 aa3c 17a7 7dbb
000002f0: c7dd 933d 519e 883c 0405 b93d 5353 24bd
00000300: 4310 72bd 5d0d 253d abfc 453d b8a5 0b3d
00000310: 373c ca3d f089 a13d 7aad dcba dd56 673d
00000320: ea65 e03d 6b0d 113c 32d7 ea3c 8d66 2e3d
00000330: 476b be3d b9fb 84bd d80e 4d3d 278f e43c
00000340: aae5 9abd bfae 513b cc61 fd3c 87be 7cbc
00000350: af1f 263d 9bec 313c 1084 d9ba 7b43 c63c
00000360: 3fe7 573d e50d febc 7bca 00bd 569d 15bd
00000370: f960 80bd 8840 2cbb 4dfb b13d f7ff c3bd
00000380: f2fd 243d e6fc 60bd d15c 033d ef0d 5e3c
00000390: a45f b23c b573 37bd 7e48 7abd 9442 5e3d
000003a0: de23 a33d 0547 34bd e83c b3bc 3933 48bc
000003b0: 33b1 9f3d 1312 2a3d 2209 cd3d bfda dcbc
000003c0: f29d c2bc 955a d53a 72b3 863c 211e 12bd
000003d0: 00dd 903c 05af 3abd af22 86bd 9345 bb3d
000003e0: 725b cc3b b4ae 02bd ef82 4abd ad0b 9fbd
000003f0: 56e1 2b39 3f43 013c c0b4 a13d 41b9 03bd
-0.015258043 -0.03670217 -0.029125586 0.110445276 -0.01365397 0.04789304 -0.090173595 0.055914942
-0.055304937 -0.07961507 -0.013036624 -0.08175334 -0.050876237 -0.0067167967 0.059530858 -0.010058732
0.03818858 -0.03239029 -0.048029143 -0.07469074 0.044586048 -0.013162421 -0.015664456 0.0073982365
0.06744485 0.101041146 0.013912097 -0.106354035 0.02873619 -0.09599647 -0.0019036738 -0.04357707
-0.04792002 0.0675204 -0.054494146 -0.06434252 0.003902886 0.013930253 -0.04943811 0.053647835
0.04325881 -0.0014875692 0.050120767 0.021717986 0.058575585 0.024982257 -0.008963473 0.09745566
-0.0031454037 0.0900326 0.10007954 0.01571271 -0.00018347288 -0.097918734 -0.00028516023 0.012333091
0.10383128 -0.012958993 -0.009704219 -0.033554025 0.08330036 -0.07345513 0.08259212 -0.006128586
0.05686304 0.05382817 0.0025094652 -0.08207645 -0.056473438 0.034282442 -0.02313468 0.05597191
0.0383576 0.07759044 -0.06145833 -0.05600305 -0.023604829 0.060151607 0.027449608 -0.0942269
-0.06463112 0.073591314 -0.09682557 -0.0029066845 0.019506494 -0.08026118 -0.04780642 0.0059711006
-0.010672123 0.068380006 -0.031396795 0.09172183 0.00046140392 0.031132596 0.0844464 -0.08041928
0.031323157 0.006120176 0.030156756 -0.06378103 0.03310825 0.008061016 0.048784964 0.047173627
0.026788782 0.10718293 0.06413167 -0.009820212 0.013792903 -0.0923723 0.064796075 0.019530328
-0.06898373 0.017832883 0.0673393 0.0066030035 0.09042452 -0.018505352 0.07405119 -0.091490306
-0.024308188 -0.014766375 0.014607375 -0.05812155 0.04828242 0.055734467 0.06787729 -0.0033946002
0.116925694 -0.08358395 0.03196103 0.076588936 0.073841415 -0.063205555 0.051903043 -0.0075216023
-0.062930346 -0.031890184 -0.0413632 -0.0040926393 0.02746128 -0.03805039 -0.042018652 -0.0098806955
-0.02784214 0.029277978 0.009835411 -0.030419666 -0.016799688 -0.022376418 0.099059716 -0.012461135
0.0048496984 -0.075465694 -0.032264035 -0.018433258 -0.071912445 -0.005571617 0.04395653 -0.083089076
0.0037588573 -0.018489797 -0.046778258 0.020319786 -0.074336715 -0.030509828 0.00196174 0.059866395
0.0725429 -0.019169962 -0.049382 0.044030394 0.07635965 0.00870021 0.023402056 0.077562176
-0.051053114 -0.06586956 -0.004426211 -0.024981651 -0.068656854 0.06151472 0.054980822 -0.04881083
0.06334548 0.054764457 0.02085436 -0.003870433 0.07220035 0.016677054 0.0903416 -0.040118527
-0.05909754 0.040295947 0.048336666 0.03409359 0.09874766 0.078876376 -0.0016836368 0.056479324
0.109569386 0.008853297 0.028667066 0.04257827 0.09297805 -0.06493325 0.050062984 0.027900292
-0.07563336 0.0031995026 0.030930422 -0.015426285 0.04055756 0.010859634 -0.0016595144 0.0242021
0.052710768 -0.031012485 -0.0314431 -0.036527 -0.06268496 -0.002628358 0.0869051 -0.09570306
0.040281244 -0.054928683 0.03207094 0.013553127 0.02177412 -0.04478808 -0.06110429 0.054262713
0.079658255 -0.044013042 -0.021879628 -0.012219244 0.0779747 0.041521143 0.100115076 -0.026959775
-0.023756955 0.0016277606 0.016442988 -0.035673264 0.017683506 -0.045577068 -0.06549584 0.091441296
0.006236487 -0.03190489 -0.049441274 -0.07765899 0.00016391775 0.007889568 0.078958035 -0.032159094

output.weight f4 [1, 512]
00000000: 31fb af3d f32e c23d 7bbc 01be 43a5 d03c
00000010: 3ba3 adbd 4b35 aabc 174c dbbd fecd 2e3e
00000020: c28a 0fbd c820 ea3d 9bd1 dabd 23b6 d1bc
00000030: 18fd 42bd 1fc8 b0bd 7710 0e3e d610 bd3c
00000040: 06d7 d83d 2b9b 663d 874c 9dbd a53d 5c3e
00000050: 7aa9 c3bc 9407 1f3e bdec debd c856 ce3d
00000060: 700b 633e 0776 3c3d 06a0 39bd c84b 71bd
00000070: 8ea8 99bd 7828 56bb 35bd 00be 53c9 ea3d
00000080: 1fcc 11be 9cbb 823c 302d 823c cb54 31be
00000090: c5be 77bc 56e8 61bd 45a1 fabc 6e2b fe3d
000000a0: b021 393d 6c1c 84bd 2f08 e3bc 9eda 61bd
000000b0: e3b1 f9bd 1d0b ed3c 4eb6 e4bd eb12 bb3d
000000c0: 3fde f13c a5af 4e3d e866 de3c 7b84 643d
000000d0: 4e0f b13d d8d6 05bd b623 debd daba 29bd
000000e0: 9717 603d f9cf 7a3c 18a7 b53d 92b6 2abe
000000f0: e821 3e3c 377b 82bd b60a ed3c e6bb 80bd
00000100: 3769 f53c dba5 45bd b057 1a3d 1458 e6bd
00000110: 81bf d13c ec9b a7bc 3113 3b3e bf8b 17bd
00000120: 538a 873d 5a79 a4bd 4953 5ebe 1a2f 4c3e
00000130: 32d7 2fbd 71e6 b23d 49fc 843d 5438 5a3e
00000140: 1940 d1bd 8e5f 09be 69e1 193e 30eb ccbc
00000150: ede6 b63d 9949 09be b713 88bd b64c 2abc
00000160: 0ced 41bd 0557 053b 0a9e c9bd 580f 5b3d
00000170: 7780 26bd d783 d23c 30b9 0a3d 60f8 6fbd
00000180: e348 313e 9777 e03d 94d5 073e 77d0 ca3d
00000190: 473e dd3c 686b 00be 1f8d 86bd 5d96 cebd
000001a0: efee ed3d b6a7 223d 48f5 94bd 1630 68bd
000001b0: 15ef 1b3e af02 333e acc9 c5bd a3ab 393e
000001c0: 5b9b 44bd 4e56 19bd 93e5 dd3d 8a9a 9fbd
000001d0: 3707 4c3d dcf3 0b3d 2973 773e e875 babd
000001e0: 4979 4ebd 8a53 17be e99a 36bd 3da9 1cbe
000001f0: f25a f13d 1f02 a23d 3b43 99bc ffc0 cd3d
00000200: 9ae2 eb3d 0ed1 a8bd 605e 30ba 29f7 52bd
00000210: 8a2e 803d 3e1e 223e ab4c a33c 39aa a53d
00000220: 046f c43d f0e0 5dbd 2fc9 793d a98f 5fbd
00000230: 7acc 773d 466e 263d e2d0 16be a3c9 92bd
00000240: 1e64 fcbc a126 00bd b2d1 a33d 78ce 76bc
00000250: c55b 1a3e c54c 4dbd 2079 8a3d e8a6 c13d
00000260: deec b0bd 9661 f8bc 051b 05be 77e9 9f3d
00000270: 0f4d 61bd b18f 6ebd ed7f a83b bccd 0cbc
00000280: 5243 303d ee45 17be 6ad6 39be f0b3 dbbd
00000290: d95c 05be 7bbd e13d 8c17 42be 6961 b13c
000002a0: febd 973d 024e 53bd 37a1 8cbd eb5b 8c37
000002b0: 8978 803d 9e9f 2bbd 0b4e de3d 258b 093e
000002c0: 6d8b f6bd eae6 393e 8ef3 05be 9fe7 933d
000002d0: 99c1 5b3e f805 df3d 0d59 da3d 0819 f9bd
000002e0: b9b2 4a3d a0c5 0bbe 00b1 613d 5a1c aa3c
000002f0: 23cf 1a3d cd5d c3bd d158 043e da68 263d
00000300: af6a 493c af74 cfbc b9fc 7a3c 64a2 bcbd
00000310: f158 ab3d 15e9 083d c7de cbbc 827a debd
00000320: 9aa5 8d3d bbed 13bd 5442 ae3d fd03 3a3e
00000330: dd3f d13d 518a d7bd 5ab6 00bd 4333 51bd
00000340: 2eda 81bd c322 01bc 80dd 42be ef2a 8dbc
00000350: 0b4e eb3d 0a02 e53d 6871 283d 3157 fbbc
00000360: 3ee0 d83c abae 4fbd 8155 533c bc1e 933d
00000370: 0233 08bd e51a 613d b305 583d 67a2 d8bd
00000380: a9bf 8dbd 7559 3b3e 471e b5bd 6fd2 ee3d
00000390: 52b9 a4bd 959e b53d 3fe7 9c3d a875 01bd
000003a0: b016 bd3c 2c8c 383e 23c9 c3bd 6eff 223d
000003b0: a3d7 523d 2c33 94bd dc00 473d 58f8 183e
000003c0: e64a 9fbc 81d4 d1bd 7323 bc3d 0aa4 00be
000003d0: f695 963d bbde ff3d 46d5 f6bb 3d74 983c
000003e0: b2ba 103e c3f7 a13d e49e 81bd 319b f3bd
000003f0: 85e3 b4bc 766f 223e 3a47 443d df30 493d
0.08592833 0.09481611 -0.12669556 0.025469428 -0.08478399 -0.020777365 -0.10707872 0.17070767
-0.03504444 0.11432034 -0.1068451 -0.025599545 -0.04760465 -0.0863192 0.13873468 0.023079317
0.105878875 0.056300323 -0.07680612 0.2150789 -0.023884524 0.15530235 -0.10884998 0.10075146
0.22172332 0.046010997 -0.045318626 -0.05891016 -0.075028524 -0.003267793 -0.12572177 0.11464181
-0.14238022 0.0159586 0.015890688 -0.17317502 -0.015121167 -0.055153213 -0.030594477 0.12410627
0.045198143 -0.064507335 -0.027713863 -0.05514013 -0.12192132 0.028935963 -0.11167584 0.09134468
0.02952492 0.050460476 0.027148679 0.055790406 0.08645497 -0.032675594 -0.10846655 -0.04143796
0.054709997 0.015308374 0.08869761 -0.16671208 0.011604764 -0.063711576 0.028935771 -0.06285839
0.029957397 -0.048253875 0.03768128 -0.11247268 0.025604011 -0.020460092 0.1826904 -0.036998507
0.0661818 -0.080309585 -0.21711458 0.19939843 -0.042929836 0.087353595 0.06493432 0.2131055
-0.10217304 -0.13415357 0.15027393 -0.02501449 0.08930764 -0.13406982 -0.06644385 -0.010394266
-0.047345206 0.0020346057 -0.09844597 0.05348143 -0.040649857 0.025697632 0.033868015 -0.05858648
0.1731296 0.1096031 0.13265067 0.09903043 0.027007235 -0.12540972 -0.065698855 -0.10087273
0.116178386 0.039710723 -0.07273346 -0.056686483 0.15227921 0.17481492 -0.096576065 0.1813188
-0.04799972 -0.037435822 0.108348034 -0.07793148 0.049811568 0.03416811 0.24165024 -0.0910452
-0.050408635 -0.14777961 -0.044581328 -0.15298934 0.117849246 0.07910561 -0.018708816 0.10046577
0.1151783 -0.08242999 -0.000672793 -0.05150524 0.062588766 0.15831849 0.01993402 0.08089108
0.09591487 -0.054169595 0.06098288 -0.054580364 0.06049774 0.04063251 -0.1472812 -0.071673654
-0.030809458 -0.03128684 0.079989806 -0.015063874 0.1507407 -0.05012204 0.06761384 0.09455663
-0.08638929 -0.03031997 -0.12998588 0.07808202 -0.05500513 -0.058242504 0.005142203 -0.008593973
0.04303295 -0.1477277 -0.18148199 -0.1072768 -0.130237 0.11022469 -0.18954295 0.021652894
0.07409285 -0.051588066 -0.06866687 1.6732103e-05 0.0627299 -0.04190027 0.10854729 0.13431986
-0.12038312 0.18154493 -0.1308119 0.072219126 0.2146057 0.1088981 0.10661516 -0.121629775
0.04948685 -0.13649607 0.05510044 0.020765472 0.037795197 -0.095393755 0.12924506 0.040627338
0.012293502 -0.025324194 0.015319043 -0.09210661 0.083665736 0.03342541 -0.024886502 -0.1086321
0.069163516 -0.03611539 0.08508745 0.18165584 0.10217259 -0.10524429 -0.031423904 -0.051074278
-0.063404426 -0.007881823 -0.19029808 -0.017232386 0.11489495 0.111820295 0.041123778 -0.030681225
0.026474115 -0.050703686 0.012898804 0.071835965 -0.03325177 0.05495729 0.05273981 -0.10577851
-0.06921322 0.18295844 -0.088436656 0.11661231 -0.080431595 0.08868138 0.07661294 -0.031606346
0.023082107 0.18022221 -0.09559848 0.039794378 0.05147518 -0.07236323 0.048584804 0.14938486
-0.019444894 -0.1024561 0.09186449 -0.12562576 0.073528215 0.12493654 -0.0075327484 0.018610114
0.14133719 0.07908585 -0.06329134 -0.11894835 -0.022081146 0.15862831 0.04791949 0.049118873
