Data/best_random_params_2.pth (torch, 276170 bytes, 5 tensors)

linear1.weight f4 [128, 13]
0	0xbcf10de5	-0.02942557
1	0x3e1bbd5d	0.15208955
2	0x3e8095e2	0.25114352
3	0x3e3b4d1a	0.1829113
4	0xbe50b999	-0.203833
5	0x3d1e64e0	0.03867042
6	0x3e4d971d	0.20077176
7	0x3e1e2681	0.15444376
8	0x3dd37ca7	0.1032651
9	0xbe0859a9	-0.13315453
10	0xbdb767f4	-0.08955374
11	0xbd7ece0e	-0.062208228
12	0xbde663c4	-0.112494975
13	0xbd8e6222	-0.06952311
14	0x3e5a15ee	0.21297428
15	0xbaa7c668	-0.0012800219
16	0x3e50cd2a	0.20390764
17	0xbdf06a10	-0.1173898
18	0xbe6a2470	-0.22865462
19	0xbde7ef6c	-0.11324963
20	0xbd01ff31	-0.03173751
21	0xbe61470b	-0.21999757
22	0xbe06b0a6	-0.13153324
23	0x3d3b9fc6	0.04580667
24	0x3c34bad3	0.0110308705
25	0xbdc05500	-0.093912125
26	0x3e2fd91a	0.17172661
27	0x3d977157	0.07394665
28	0x3e6bacae	0.23015091
29	0xbe22610b	-0.15857331
30	0x3e8ceca6	0.27524298
31	0xbe44890f	-0.19192909
32	0x3dbd2179	0.092349
33	0x3e83ed14	0.25766814
34	0xbdf13da1	-0.11779333
35	0x3e1293b2	0.14314154
36	0xbe093c9b	-0.13402025
37	0x3d5f7e8f	0.054564055
38	0x3e2c6cb8	0.16838348
39	0x3e1491c5	0.14508732
40	0xbe451318	-0.19245565
41	0x3c216d59	0.009852731
42	0xbcc190c4	-0.0236286
43	0x3de749f1	0.112934
44	0xbe5b76dd	-0.21432061
45	0x3e67c579	0.22633924
46	0xbe65dac9	-0.22446741
47	0xbc9de780	-0.019275427
48	0x3e6ca009	0.23107924
49	0xbc9ed2b5	-0.019387582
50	0x3e8efa31	0.27925256
51	0xbe2dc01a	-0.16967812
52	0x3e602687	0.21889697
53	0xbce66912	-0.028126273
54	0x3d5410c4	0.0517738
55	0x3e522139	0.20520486
56	0x3d68f44b	0.0568736
57	0x3e4654c5	0.19368275
58	0x3db8251f	0.08991455
59	0xbe45daef	-0.19321798
60	0x39b56581	0.00034598637
61	0x3e6d2ee0	0.23162413
62	0x3e93bf9c	0.28857124
63	0x3e7b70a2	0.24554685
64	0xbe215253	-0.1575406
65	0xbdd37151	-0.10324348
66	0x3dc5b7a4	0.09654167
67	0x3e35a074	0.1773699
68	0xbccf541a	-0.025308657
69	0x3d389133	0.045060348
70	0xbe065698	-0.1311897
71	0x3e41126d	0.18854685
72	0xbe28de08	-0.16490948
73	0x3de67b20	0.11253953
74	0xbdaac46d	-0.083382465
75	0xbe6640f9	-0.22485723
76	0x3cf26df2	0.029593442
77	0x3d87950f	0.066202275
78	0xbe3c74d7	-0.18403946
79	0xbe68af95	-0.22723229
80	0xbe83b0a0	-0.25720692
81	0xbe3bd1d5	-0.18341763
82	0xbe0d7c02	-0.13816836
83	0x3e26b7a8	0.16280997
84	0xbe5e91f5	-0.21735366
85	0x3c611d80	0.0137399435
86	0xbe5e1fbe	-0.21691796
87	0xbb138ee4	-0.002251559
88	0x3e139343	0.14411645
89	0x3e56a73c	0.20962232
90	0xbe885458	-0.2662685
91	0xbdecf840	-0.115707874
92	0xbdf7d35d	-0.12100861
93	0x3e2ca47f	0.16859625
94	0xbe8379b4	-0.2567879
95	0xbb169df0	-0.0022982322
96	0xbe43f968	-0.1913811
97	0xbe62b93f	-0.22140978
98	0x3e85a9e6	0.26106185
99	0x3e4c8f04	0.19976431
100	0x3dfbee21	0.12301279
101	0xbd988eef	-0.074491374
102	0x3d30fbd5	0.043208916
103	0x3e8c1263	0.27357778
104	0xbe27b8d4	-0.163791
105	0x3b15a32f	0.002283286
106	0xbe51949a	-0.20466843
107	0xbe1a94f6	-0.15095887
108	0x3b770f42	0.0037698303
109	0xbe8c599d	-0.2741212
110	0x3cc7f5e6	0.024409246
111	0xbe5cb707	-0.21554194
112	0xbe6cdf73	-0.23132114
113	0x3e6b10fc	0.22955698
114	0x3e807cd2	0.2509523
115	0x3e6ae0eb	0.22937362
116	0x3e4697a8	0.1939379
117	0x3e1d08fb	0.15335457
118	0xbe71d57c	-0.23616594
119	0x3dcd1f79	0.100157686
120	0x3cc9e90c	0.024647258
121	0x3d8a8401	0.06763459
122	0xbd8b417e	-0.06799601
123	0x3d84bb14	0.06480995
124	0xbe6c8cb2	-0.23100546
125	0xbe0cf779	-0.13766278
126	0x3d9a48ce	0.07533418
127	0xbe80bf5b	-0.25145993
128	0xbe20b2c2	-0.1569319
129	0xbdccb678	-0.09995741
130	0x3de2ec8a	0.110802725
131	0xbd342563	-0.043980967
132	0x3e470c7a	0.19438353
133	0xbe53b90b	-0.20676057
134	0x3e8791ff	0.26478574
135	0x3d1820b3	0.03714056
136	0xbdeb80f7	-0.114992075
137	0x3e7e6817	0.24844395
138	0x3e0d50fb	0.13800423
139	0xbe2977c2	-0.1654959
140	0xbe0c0db0	-0.13677096
141	0x3d34fd1f	0.044186708
142	0xbe87081a	-0.26373369
143	0x3cbdf8df	0.02318996
144	0xbdfba076	-0.12286465
145	0xbd3a1201	-0.045427326
146	0x3e2cdfad	0.168822
147	0x3e0225c4	0.12709719
148	0x3e84765e	0.25871557
149	0xbd5e3791	-0.05425221
150	0xbdff4f6d	-0.12466321
151	0xbe78c037	-0.24292074
152	0x3da54029	0.08068878
153	0xbdc0406c	-0.093872875
154	0x3d894237	0.067020826
155	0xbe41a27c	-0.18909639
156	0xbe105ef5	-0.14098723
157	0xbe58159e	-0.21101996
158	0x3de25f04	0.11053279
159	0x3e18fcb6	0.14940152
160	0x3e7fe212	0.24988583
161	0x3d85fc79	0.06542296
162	0xbe8084f5	-0.25101438
163	0x3e20fac3	0.15720658
164	0xbd1b6c23	-0.037944924
165	0x3e880e85	0.26573578
166	0xbe6e6e82	-0.23284343
167	0xbda6d7e5	-0.08146647
168	0x3e56943b	0.20954983
169	0xbdf3d8a8	-0.11906558
170	0xbe14ff71	-0.14550568
171	0xbd22c5be	-0.039739363
172	0x3de61f15	0.11236397
173	0xbe36efea	-0.17864957
174	0xbe083810	-0.13302636
175	0xbd292cbb	-0.041302424
176	0x3e86fe82	0.2636605
177	0x3dcff789	0.101546355
178	0x3d2f8a2a	0.042856373
179	0xbdfb2f64	-0.122648984
180	0x3e49c95b	0.19705717
181	0xbe6304f3	-0.22169857
182	0xbd87ff99	-0.06640548
183	0x3e5fce3e	0.21856019
184	0x3c7a0e1d	0.015262154
185	0x3c6a0ccc	0.014285278
186	0x3dd21e4c	0.10259685
187	0xbd7f3e45	-0.062315244
188	0xbe0d4897	-0.13797222
189	0x3c8178a1	0.01580459
190	0x3d7dd1c4	0.061967626
191	0x3da5a74d	0.08088551
192	0x3cfe91e9	0.031075435
193	0xbd9f500a	-0.07778938
194	0xbdcdea83	-0.10054495
195	0xbe5e4323	-0.21705298
196	0xbe0ee13a	-0.13953105
197	0x3e0133cf	0.1261742
198	0x3d5428f0	0.051796854
199	0xbdb4eaad	-0.08833823
200	0x3c34fe63	0.011046979
201	0x3d1f7449	0.038929258
202	0x3e4b0687	0.19826709
203	0x3e68ff42	0.22753623
204	0xbe801c4b	-0.25021586
205	0x3e13c1b2	0.14429358
206	0x3bbeaba6	0.005818802
207	0xbd42b46a	-0.047535338
208	0x3e8c285f	0.2737455
209	0xbe8de281	-0.2771187
210	0xbdca927c	-0.09891221
211	0x3e103305	0.14081962
212	0xbd9e9041	-0.07742358
213	0x3c88efa1	0.016715826
214	0xbe81f5be	-0.253828
215	0xbdc8c74f	-0.0980364
216	0xbdf50522	-0.1196387
217	0xbe8f41c0	-0.2797985
218	0xbd0d4697	-0.034491148
219	0xbe5bb040	-0.21453953
220	0xbe296c5c	-0.16545242
221	0xbe128a86	-0.14310655
222	0xbb9131cb	-0.0044309846
223	0x3de5be44	0.11217931
224	0xbda22726	-0.07917623
225	0xbd29f81a	-0.041496374
226	0x3e8bd07e	0.27307504
227	0xbe05c604	-0.13063818
228	0xbe8bb39a	-0.27285463
229	0x3e06ffa2	0.13183454
230	0xbddd79eb	-0.1081427
231	0xbe6b23a2	-0.22962812
232	0xbe86c4b1	-0.2632194
233	0xbe1d55c0	-0.15364742
234	0x3d482b00	0.048869133
235	0x3d440db6	0.04786464
236	0xbc11822c	-0.008881133
237	0x3d0a8bb7	0.03382465
238	0x3e508bfc	0.203659
239	0xbc949121	-0.01813561
240	0x3e45a330	0.19300532
241	0x3d0ccb0a	0.03437332
242	0xbe347e3e	-0.17626283
243	0xbcb7afbb	-0.022422662
244	0xbe3410fe	-0.17584607
245	0x3e24cd7f	0.16094016
246	0x3d22b81a	0.039726354
247	0xbe2d6ebb	-0.16936772
248	0x3e767c4b	0.24070852
249	0x3decf0a6	0.115693375
250	0x3d362944	0.044472948
251	0xbe4ba1b7	-0.19885908
252	0x3d72409e	0.059143655
253	0x3cebe00a	0.028793354
254	0xbe873954	-0.26410925
255	0xbe82a388	-0.2551539

linear1.bias f4 [128]
0	0x3e42d87e	0.19027898
1	0xbcf08592	-0.029360566
2	0xbe66241d	-0.22474714
3	0xbe8253d2	-0.25454575
4	0x3e59dc1d	0.21275373
5	0x3e82a0c1	0.2551327
6	0x3cbe8896	0.023258489
7	0x3ca8871a	0.020572234
8	0x3ce59807	0.028026594
9	0xbceb6b64	-0.028737731
10	0x3e1a2582	0.1505337
11	0xbd96e142	-0.07367183
12	0x3dedfc29	0.11620361
13	0xbd3b83e1	-0.045780066
14	0xbe1edd85	-0.1551419
15	0xbd593a91	-0.05303437
16	0x3d2d5c90	0.042324603
17	0x3e8a0bdb	0.2696217
18	0xbe852ad3	-0.26009235
19	0x3e397bc4	0.18113619
20	0xbe78613a	-0.24255839
21	0x3d3a97c3	0.045554888
22	0x3dd2c22a	0.1029094
23	0xbe1607bf	-0.14651392
24	0xbe1775ca	-0.14791027
25	0x3d0ee107	0.03488257
26	0xbceace53	-0.028662836
27	0x3e1e3268	0.15448916
28	0x3e5f4913	0.2180522
29	0xbc1825fa	-0.009286398
30	0xbd898f3e	-0.067167744
31	0xbdf9627f	-0.1217699
32	0x3e090e94	0.13384467
33	0xbdef7527	-0.11692267
34	0x3dd513c9	0.10404164
35	0xbe4fd0c8	-0.20294487
36	0x3e0c0274	0.13672811
37	0x3e093633	0.13399582
38	0x3dd8eacd	0.1059166
39	0xbd860549	-0.06543977
40	0xbd2f6b27	-0.042826798
41	0xbe728fda	-0.23687688
42	0xbe612f92	-0.21990803
43	0xbdda38a3	-0.10655334
44	0x3e12b11c	0.14325374
45	0x3d39a3e9	0.045322333
46	0xbe8292bc	-0.25502574
47	0xbd905fcf	-0.07049524
48	0xbe52258b	-0.20522134
49	0xbe4fa0c2	-0.20276168
50	0xbe11ecfd	-0.1425056
51	0xbe340fc9	-0.17584147
52	0x3e669d56	0.22520956
53	0x3e2b029a	0.16700211
54	0xbe2a78cd	-0.16647644
55	0xbe0530b7	-0.13006864
56	0x3e505914	0.2034648
57	0xbe86f7bc	-0.2636088
58	0xbdb1f539	-0.08689351
59	0x3d66aa4e	0.05631476
60	0x3e1557e5	0.1458431
61	0x3db2162a	0.08695634
62	0xbe6402b4	-0.22266656
63	0xbe75a8e5	-0.2399021
64	0xbe5628e7	-0.2091404
65	0xbc920ed7	-0.017829342
66	0x3e08a4e7	0.13344155
67	0xbe4c5682	-0.19954875
68	0xbdd8e6ab	-0.105908714
69	0x3bfb5c0b	0.0076708845
70	0x3d7e2342	0.062045343
71	0xbde831d8	-0.11337632
72	0xbe0cabb7	-0.13737379
73	0x3c2cee8f	0.010554924
74	0x3cb037e6	0.02151103
75	0xbc15f570	-0.009152755
76	0x3e72d981	0.23715784
77	0x3e0fb736	0.14034733
78	0x3db72136	0.08941881
79	0xbe85eb3a	-0.26156026
80	0xbe382ae8	-0.17985117
81	0xbb824d15	-0.003976474
82	0x3e3cf533	0.18452911
83	0xbc4f211f	-0.012642174
84	0x3e7d0f90	0.24712968
85	0xbe0492b4	-0.12946588
86	0xbe0bf594	-0.136679
87	0xbe60573e	-0.2190828
88	0xbe1d186c	-0.15341347
89	0x3e00e436	0.12587056
90	0x3e81c467	0.25345156
91	0x3e3e806e	0.1860368
92	0x3d2b94f1	0.04189009
93	0x3ae63387	0.0017562964
94	0x3e5512a7	0.20807897
95	0x3e3fd443	0.18733315
96	0x3e5f517b	0.21808426
97	0xbe804821	-0.2505503
98	0xbe1f9114	-0.15582687
99	0x3e4a8ea9	0.19780983
100	0xbe5ef9fc	-0.21775049
101	0x3dbedbff	0.09319305
102	0x3e8cea6e	0.27522606
103	0xbde50643	-0.11182835
104	0xbd867e95	-0.06567112
105	0x3e317eff	0.17333601
106	0xbe201530	-0.15633082
107	0x3d8d136a	0.068884686
108	0xbe53faf9	-0.20701207
109	0x3e5ec373	0.21754245
110	0x3c5226d9	0.012826645
111	0xbe7b39db	-0.24533789
112	0x3dc863e3	0.09784677
113	0xbe668a09	-0.22513594
114	0x3df175ed	0.11790071
115	0xbe25586f	-0.16147016
116	0x3ddbe7b2	0.10737552
117	0xbd893c76	-0.06700985
118	0xbceeba58	-0.02914159
119	0x3e16a8d0	0.14712834
120	0xbcc33ebd	-0.023833627
121	0xbca8971b	-0.020579865
122	0xbe62bdcf	-0.22142719
123	0x3e77dcc0	0.24205303
124	0x3dee9b18	0.116506755
125	0xbd061e36	-0.032743655
126	0xbde1b308	-0.110204756
127	0x3d9552ab	0.07291158

linear2.weight f4 [512, 128]
0	0x3c7d130b	0.015446435
1	0xbc2fec6e	-0.010737522
2	0xbd976f97	-0.07394331
3	0x3c81f886	0.015865576
4	0x3d8277d8	0.06370515
5	0xbd483bab	-0.04888503
6	0xbdab38b0	-0.08360422
7	0xbd3b0202	-0.04565621
8	0x3cd24fd8	0.025672838
9	0xbdc55e1e	-0.09637092
10	0xbcddd705	-0.027080068
11	0xbd8b2c9f	-0.0679562
12	0xbd84e390	-0.064887166
13	0x3c004260	0.007828325
14	0xbd582557	-0.052769985
15	0xbdc898ad	-0.097947456
16	0x3d9247ec	0.07142624
17	0x3d859444	0.0652242
18	0x3d1641ee	0.03668397
19	0x3d95df38	0.07317966
20	0xbd973d0f	-0.07384693
21	0x3d458123	0.048218857
22	0xbb7ecc09	-0.0038878939
23	0x3c9c38df	0.019070087
24	0xbd2b3461	-0.041798
25	0xbc3da795	-0.011575599
26	0xbd096553	-0.033543896
27	0xbd2fd024	-0.042923108
28	0x3c618381	0.013764263
29	0xbc6eae2a	-0.014567891
30	0xbd0a7bd3	-0.033809494
31	0x3bf49466	0.0074639795
32	0xbc8cdf54	-0.017196335
33	0x3d7ccbaa	0.061717667
34	0x3d19b552	0.037526436
35	0xbcd5be60	-0.026091754
36	0x3ce891fd	0.028389925
37	0xbd6612dd	-0.056170333
38	0x3d997640	0.074932575
39	0x3da613b8	0.0810923
40	0x3d91c11a	0.07116909
41	0x3d8e8d30	0.06960523
42	0x3c306e62	0.010768505
43	0x3ce5954a	0.028025288
44	0xbbf74d11	-0.007547029
45	0xbc47f0f6	-0.012203446
46	0x3dc804db	0.09766551
47	0xbd9869e2	-0.074420705
48	0x3dac01ab	0.08398756
49	0xbd932b9c	-0.07186052
50	0x3c4769b2	0.012171196
51	0x3d3d0a99	0.046152685
52	0xbd9e2a03	-0.07722857
53	0x3d08d2d3	0.033404183
54	0x3cc1eca8	0.023672417
55	0xbc8efd0f	-0.017454652
56	0xbd7c225e	-0.061556213
57	0xbd712e4a	-0.058882035
58	0xbb93f0a5	-0.004514771
59	0x3d060f0f	0.032729205
60	0x3db2ae03	0.08724596
61	0xbcd91bc1	-0.026502492
62	0x3ca66f42	0.020316724
63	0xbcc359cb	-0.023846528
64	0x3d2bb60b	0.041921657
65	0xbcf066d9	-0.029345917
66	0x3d494275	0.049135644
67	0x3be3b599	0.0069491384
68	0xbbb893e1	-0.005632863
69	0xbb6e3109	-0.0036345145
70	0x3d40adc5	0.04704072
71	0x3d9127af	0.07087647
72	0xbcf1290a	-0.029438514
73	0x3c854992	0.016270433
74	0x3d951b8f	0.07280647
75	0xbd7a8d8f	-0.061170157
76	0x3c58de06	0.013236528
77	0xbd9c6374	-0.07636157
78	0xbd700262	-0.058596022
79	0xbd26c529	-0.04071537
80	0xbd1c6bec	-0.03818886
81	0x3d74e150	0.059785187
82	0x3c9cabd7	0.019124908
83	0xbda360c4	-0.07977441
84	0x3da58390	0.08081734
85	0x3d9f26bc	0.0777106
86	0xbd183b5b	-0.03716598
87	0x3d089827	0.03334823
88	0xbb3264a3	-0.0027220629
89	0x3b052169	0.0020314103
90	0xbcc6c892	-0.024265561
91	0x3d07ab43	0.033122312
92	0x3c089bcc	0.008337926
93	0xbd3f76ba	-0.046744086
94	0x3d51eb89	0.051250014
95	0xbd67aa46	-0.05655887
96	0x3d7637f4	0.060111955
97	0xbd5760ca	-0.05258254
98	0xbd03cf00	-0.032179832
99	0x3d1ab060	0.03776586
100	0xbbdbcd02	-0.0067077884
101	0x3d66f35f	0.05638444
102	0x3cb73d63	0.022368139
103	0xbd2b0394	-0.04175146
104	0x3d8b72cb	0.068090044
105	0x3d80ac15	0.06282822
106	0xbd69de62	-0.057096846
107	0x3d0ccfda	0.03437791
108	0x3d01e1cf	0.03170949
109	0xbcea8161	-0.028626146
110	0x3d137a95	0.036005575
111	0x3d4fcbe9	0.050731573
112	0xbca6ee7b	-0.020377388
113	0xbc7b4a68	-0.015337564
114	0xbc37cd13	-0.011218327
115	0x3d986460	0.0744102
116	0xbc312bc5	-0.010813658
117	0xbd2a448a	-0.04156927
118	0x3d1f44e1	0.038884047
119	0x3d7651ec	0.06013672
120	0xbd55f277	-0.052233186
121	0x3c7639e6	0.0150284525
122	0xbd4b331d	-0.049609292
123	0x3dab21a3	0.08356025
124	0xbd72fac4	-0.05932118
125	0xbce1862d	-0.0275298
126	0xbdaf638b	-0.08563908
127	0xbd4e40fd	-0.050354946
128	0xbd87ee26	-0.0663722
129	0xbd10c968	-0.035348326
130	0x3ce8cdc9	0.028418439
131	0x3d9969dd	0.07490895
132	0xbd4f1e62	-0.050566085
133	0xbd2ba4ea	-0.04190532
134	0x3d7935c4	0.06084229
135	0x3d4f84c9	0.050663743
136	0x3c19ee37	0.009395174
137	0x3cd5e0ed	0.02610823
138	0x3d99b334	0.075048834
139	0x3d77c208	0.060487777
140	0x3d994826	0.07484464
141	0x3d40f845	0.04711177
142	0xbd998b07	-0.074972205
143	0xbc52de79	-0.012870424
144	0x3d47b28d	0.048754264
145	0x3bd8f8f1	0.006621473
146	0xbd44970b	-0.04799561
147	0x3baf6a36	0.0053532375
148	0x3d0b3ecf	0.033995446
149	0xbd289998	-0.041162103
150	0xbd40bcc6	-0.04705503
151	0xbd68b45c	-0.05681263
152	0xbd1baba2	-0.03800548
153	0x3da7f8bd	0.0820174
154	0xbd3e03d6	-0.046390377
155	0xbd058518	-0.03259763
156	0xbd419767	-0.04726353
157	0xbccd6055	-0.025070349
158	0x3cc7fee4	0.024413534
159	0x3cd39e73	0.02583239
160	0xbd79a8ae	-0.06095188
161	0x3d784bca	0.060619153
162	0xbda857f6	-0.08219902
163	0xbd818011	-0.06323255
164	0xbd805a22	-0.062671915
165	0x3ce10168	0.02746649
166	0xbd34f848	-0.044182092
167	0x3d3ec555	0.04657491
168	0xbd867d1c	-0.065668315
169	0x3d2a0d58	0.04151663
170	0x3d9c2518	0.076242626
171	0x3d11a06c	0.03555338
172	0x3d0b453d	0.034001578
173	0xbd5944aa	-0.053044
174	0xbd553ee7	-0.05206194
175	0xbcd5f465	-0.026117513
176	0x3d117c0f	0.035518702
177	0xbda3320c	-0.0796853
178	0x3d40a820	0.047035336
179	0xbcc0182d	-0.023449028
180	0x3ba57ca6	0.0050502596
181	0x3dab53a6	0.08365564
182	0xbd1fd106	-0.0390177
183	0x3da8d8f2	0.08244504
184	0x3ce82c56	0.028341454
185	0xbd0545e4	-0.032537356
186	0x3c7aa0a0	0.015297085
187	0xbd4d166f	-0.050070222
188	0x3d6c18e9	0.057640944
189	0x3d3458db	0.04403005
190	0x3d280ced	0.041027952
191	0x3d80e86f	0.06294333
192	0x3da7447c	0.08167359
193	0xbb8a310b	-0.004217272
194	0xbd992627	-0.0747798
195	0x3d804b5d	0.062643744
196	0x3d39750f	0.04527765
197	0xbd7a18be	-0.061058752
198	0x39c1ca8e	0.00036962744
199	0x3d3f8c4a	0.04676465
200	0xbd9c1b72	-0.07622422
201	0xb9879c5f	-0.00025865712
202	0x3d5980a4	0.053101197
203	0xbcc89800	-0.024486542
204	0xbc9cc199	-0.019135283
205	0x3d0d2359	0.03445754
206	0x3daf4a05	0.0855904
207	0x3d3329f5	0.043741185
208	0xbd85937d	-0.06522272
209	0x3ca4eee9	0.020133452
210	0x3d1d9832	0.038475223
211	0x3d506107	0.050873782
212	0xbd062f11	-0.03275973
213	0xbbbc6e49	-0.0057504517
214	0x3d0a4eb0	0.03376645
215	0x3da5fbbc	0.08104655
216	0x3c38a514	0.011269826
217	0xbc9cffe1	-0.019164981
218	0x3d24cba7	0.04023328
219	0xbce71ffd	-0.028213495
220	0x3dc1a78e	0.09455787
221	0x3d8c9ef4	0.068662554
222	0xbd8378f6	-0.06419556
223	0xbd9cabd3	-0.0764996
224	0x3d9885d3	0.074474
225	0xbcfdbdc1	-0.03097427
226	0xbc967948	-0.018368378
227	0x3c9fd26b	0.019509515
228	0xbd274dcb	-0.040845674
229	0xbd004ad0	-0.031321347
230	0x3db8abe1	0.09017158
231	0xbcd3f716	-0.025874656
232	0xbd3ea584	-0.046544567
233	0x3d40a5b0	0.047033012
234	0x3d317e28	0.043333203
235	0xbccec92d	-0.025242412
236	0x3d58702e	0.052841358
237	0x3d8ac97e	0.06776713
238	0x3da43587	0.08018022
239	0x3d7c12fb	0.06154154
240	0x3d4beec5	0.049788255
241	0xbccbb544	-0.024866708
242	0xbd8ce578	-0.06879705
243	0xbbdec62c	-0.0067985263
244	0xbdabe5f1	-0.08393467
245	0x3d70549b	0.058674436
246	0x3d2ec88e	0.042671733
247	0x3db5a450	0.08869231
248	0x3d532ee1	0.05155838
249	0x3db20ad3	0.08693471
250	0x3cd1caee	0.02560946
251	0xbd6859a8	-0.056726128
252	0xbd9315c9	-0.071818896
253	0xbda5e7f0	-0.08100879
254	0xbd884470	-0.066536784
255	0x3d81b71f	0.06333756

linear2.bias f4 [512]
0	0xbcbb5641	-0.022868278
1	0xbd93dd56	-0.07219951
2	0x3d0350e4	0.032059565
3	0xbd4215f9	-0.047384236
4	0x3c71aacb	0.014750193
5	0xbd0969bb	-0.033548098
6	0xbbabcc87	-0.0052428874
7	0xbd64c575	-0.055852372
8	0xbce9fdb8	-0.028563365
9	0x3cfe9465	0.03107662
10	0xbd7973ab	-0.060901325
11	0x3d85ac71	0.06527031
12	0xbc231160	-0.009952873
13	0x3d01f474	0.03172727
14	0x3d8be529	0.06830818
15	0xbbbd5161	-0.0057775234
16	0x3d7ef1a4	0.062242165
17	0x3d5b18aa	0.05349032
18	0x3cb5c4f3	0.02218864
19	0xbbae9eef	-0.005329005
20	0x3d2395cd	0.039937783
21	0x3da2c481	0.079476364
22	0x3c152cd7	0.009104929
23	0xbb8fdfb6	-0.004390682
24	0xbd7434e2	-0.059620745
25	0x3d10a53d	0.035313834
26	0xbc851a3a	-0.016247857
27	0xbca3688c	-0.019947313
28	0xbda6a884	-0.081376106
29	0x3da0bb84	0.07848266
30	0xbb61a2ae	-0.003442924
31	0xbc03d6d1	-0.008046822
32	0xbc2304ce	-0.009949876
33	0xbc754405	-0.01496983
34	0xbd1d597d	-0.03841542
35	0xbcb92045	-0.022598395
36	0xbd606327	-0.05478206
37	0x3d9baf92	0.07601847
38	0xbd98a590	-0.074534535
39	0xbbfd93d0	-0.007738568
40	0xbc88e023	-0.01670844
41	0xbda5426d	-0.0806931
42	0x3d968d07	0.073511176
43	0xbd4b6a55	-0.049661953
44	0x3db327b9	0.08747811
45	0xbda5ad94	-0.08089748
46	0xbd958e33	-0.07302513
47	0x3d796ed9	0.06089673
48	0x3d7efdc5	0.062253732
49	0xbcdb154c	-0.026743554
50	0xbc5a39b1	-0.013319419
51	0xbd9d62c4	-0.07684854
52	0x3da5d824	0.08097866
53	0x3d7d38fe	0.06182193
54	0x3d8835d0	0.06650889
55	0xbd90571e	-0.07047866
56	0x3d97cd30	0.07412183
57	0xbd8abb5b	-0.067740165
58	0x3d58a228	0.05288902
59	0xb985d21f	-0.0002552429
60	0x3d6f0a5b	0.058359485
61	0x3db73bd7	0.089469604
62	0x3da164b3	0.07880535
63	0xbda50c83	-0.08059027
64	0xbdb40532	-0.087900534
65	0xbbfef24d	-0.0077803493
66	0x3c9a65d4	0.018847384
67	0xbd4f3f9e	-0.05059778
68	0xbd905f68	-0.07049447
69	0xbd6698e6	-0.05629816
70	0x3cc0a5bc	0.023516528
71	0xbb8d34a1	-0.0043092524
72	0xbcd9b7ef	-0.026576964
73	0x3cc38438	0.023866758
74	0xbd1c6c80	-0.03818941
75	0x3cd9d851	0.026592406
76	0x3ac3c2b0	0.0014935341
77	0xbd4920b9	-0.049103472
78	0xbd9bed3a	-0.07613607
79	0xbd29594d	-0.04134493
80	0x3ce0816e	0.027405467
81	0xbd731e00	-0.059354782
82	0x3da010f7	0.07815736
83	0x3c046c75	0.008082499
84	0xbdb5f8f8	-0.08885378
85	0x3bc596c9	0.006029938
86	0x3ce40774	0.027835585
87	0xbdb34964	-0.087542325
88	0x3c743a3a	0.01490646
89	0xbcf74d5e	-0.030188259
90	0x3cd9d901	0.026592733
91	0xbd8fda02	-0.070240036
92	0x3bdee8b7	0.006802644
93	0xbc6d0515	-0.014466544
94	0x3d96ed74	0.07369509
95	0x3d84034f	0.064459436
96	0x3d2c36ab	0.042044323
97	0x3c0a079c	0.008424666
98	0x3db12b2c	0.086508125
99	0x3d8ee5b1	0.06977404
100	0xbdab0cf0	-0.08352077
101	0x3c2c345e	0.010510532
102	0xbd5b5ed1	-0.05355722
103	0xbd2a86a7	-0.04163232
104	0x3da68ba5	0.08132104
105	0xbc8e60b0	-0.017380089
106	0xbda9e319	-0.082952686
107	0x3dac6a35	0.08418695
108	0xbd3f6645	-0.04672839
109	0xbd1ce11e	-0.038300626
110	0xbd589dee	-0.05288499
111	0xbc8ed575	-0.017435769
112	0x3c14a7f1	0.0090732435
113	0x3d00e2d0	0.031466305
114	0x3d9d279b	0.0767357
115	0xbd08dd76	-0.033414327
116	0xbcbdc7ce	-0.023166563
117	0x3d90fc63	0.07079389
118	0x3cd17878	0.02557014
119	0xbd4264a7	-0.04745927
120	0x3dac6eaa	0.08419545
121	0x3d9d9be7	0.07695752
122	0xbd234c22	-0.039867528
123	0x3db0dfc4	0.0863643
124	0xbd0ad74f	-0.03389674
125	0xbd91bd4e	-0.07116185
126	0x3d4c2afa	0.049845673
127	0xbd65d280	-0.05610895
128	0xbd1149e3	-0.035470854
129	0x3d112ad6	0.035441242
130	0xbca8b683	-0.02059484
131	0x3cfed3b8	0.031106815
132	0xbd900e8f	-0.07034027
133	0xbd9d31e5	-0.07675532
134	0xbda15194	-0.07876888
135	0xbd97bd35	-0.07409135
136	0x3c3c777a	0.011503095
137	0xbccd1d50	-0.025038391
138	0xbc8f9272	-0.017525885
139	0x3d8355ae	0.064128265
140	0xbcf3e742	-0.029773358
141	0x3daa6b60	0.083212614
142	0x3d04a525	0.032384057
143	0x3db3bc30	0.08776128
144	0xbd30b9ac	-0.04314582
145	0xbc5e7229	-0.013577023
146	0xbd7304ea	-0.05933086
147	0x3d409a06	0.04702189
148	0xbc4ab5a5	-0.012372409
149	0xbbabc6af	-0.005242191
150	0xbad76254	-0.0016432502
151	0xbd8b4247	-0.06799751
152	0x3d079745	0.033103246
153	0x3bc7c9c8	0.0060970522
154	0xbd8ae25e	-0.06781457
155	0xbd8c98d9	-0.06865091
156	0x3d2b41e1	0.041810874
157	0xbc971659	-0.018443273
158	0xbd04a36f	-0.032382425
159	0x3c87c19a	0.016571809
160	0x3da1ba74	0.07896891
161	0xbc969164	-0.018379875
162	0x3d523873	0.051323365
163	0x3d6a2378	0.057162732
164	0x3d03ad77	0.03214785
165	0x3d87ffb8	0.06640571
166	0x3da384b7	0.07984298
167	0x3d4f111b	0.050553422
168	0xbceb9c58	-0.028761074
169	0xbd65ed8d	-0.05613475
170	0x3db07900	0.08616829
171	0x3d8b3293	0.06796756
172	0x3d8900a3	0.066895746
173	0xbd6b6e2e	-0.057478122
174	0xbc6a8116	-0.014313003
175	0xbd9a03ca	-0.07520254
176	0xbd86866a	-0.06568606
177	0x3cb72dad	0.022360647
178	0xbc865149	-0.016396182
179	0xbda268dc	-0.079301566
180	0xbd11adbe	-0.035566084
181	0x3d015652	0.031576462
182	0xbce62657	-0.028094454
183	0x3d83ce3c	0.064358205
184	0x3d9455ab	0.07242902
185	0x3d7d24cf	0.06180268
186	0x3ce270cb	0.027641675
187	0x3ba1a01e	0.0049324175
188	0xbd5811e7	-0.052751448
189	0xbd9b595e	-0.07585405
190	0xbda9e079	-0.08294768
191	0xbd8639db	-0.06554004
192	0xbd1b0ddc	-0.037855014
193	0xbda8c41e	-0.082405314
194	0xbda3776c	-0.07981762
195	0xbd97e161	-0.074160345
196	0x3d9a96f5	0.07548324
197	0x3d002112	0.03128154
198	0xbd6ee13b	-0.058320265
199	0x3ca1c2c2	0.019746188
200	0xbd9ac167	-0.0755642
201	0x3db7936f	0.089636676
202	0xbcb7b429	-0.022424774
203	0xbd27523c	-0.04084991
204	0x3cb3d715	0.021953145
205	0xbb783f98	-0.0037879702
206	0xbd8b0747	-0.067884974
207	0x3d9f027b	0.07764145
208	0x3ce0e2cf	0.0274519
209	0x3da91517	0.08255976
210	0x3b8b5a77	0.0042527276
211	0xbd428726	-0.04749217
212	0x3d169aba	0.036768652
213	0xbc1a0e46	-0.009402817
214	0xbd31a4e8	-0.043370157
215	0xbd3f18cd	-0.04665451
216	0xbd826240	-0.06366396
217	0xbd5c79c9	-0.05382708
218	0xbda7df16	-0.08196847
219	0x3d55e583	0.052220833
220	0x3d65308b	0.055954497
221	0xbd771c70	-0.060329854
222	0x3d32a351	0.043612782
223	0xbc614a7d	-0.01375067
224	0x3c523e09	0.012832173
225	0xbda45b6f	-0.08025252
226	0x3cdc9512	0.026926551
227	0x3d9fff27	0.07812338
228	0x3d8fbc18	0.07018298
229	0xbd3ee0eb	-0.046601217
230	0xbdb7fe2d	-0.08984027
231	0x3d8dd184	0.069247276
232	0xbce9bfaf	-0.028533785
233	0x3d82a7d3	0.06379666
234	0x3cd82777	0.026386006
235	0xbd04fefa	-0.032469727
236	0x3d90c8ce	0.070695505
237	0x3cea9f0c	0.028640293
238	0x3cfa5992	0.030560289
239	0xbd1748d9	-0.036934707
240	0x3c6fe1d4	0.014641244
241	0x3c6613d7	0.014042816
242	0xbd7b16c5	-0.06130101
243	0x3d19045d	0.037357677
244	0x3dae4978	0.08510107
245	0xbca86b6c	-0.020559035
246	0xbd3860c4	-0.045014158
247	0xba85efd2	-0.0010218567
248	0x3d4457de	0.04793536
249	0x3d55359a	0.05205307
250	0x3d8edeb8	0.06976074
251	0x3d0ea41f	0.034824487
252	0x3d6006c2	0.054693945
253	0xbc9cb8d2	-0.019131098
254	0x3d9b3bff	0.07579803
255	0x3cd5ec74	0.026113726

output.weight f4 [1, 512]
0	0xbd0a2c82	-0.033733852
1	0x3c4adb12	0.012381332
2	0x3ccd3201	0.025048258
3	0xbd1e93df	-0.03871524
4	0xbcd768b5	-0.026295045
5	0xbd220997	-0.039559927
6	0xbc55d95f	-0.013052314
7	0xbaeae647	-0.0017921411
8	0xbd2b08d2	-0.04175646
9	0x3bc0bd91	0.005881973
10	0xbcf29e5c	-0.029616527
11	0xbcba627d	-0.022752041
12	0x3c1e936d	0.009678704
13	0x3b9295cc	0.0044734236
14	0x3d08a155	0.033356983
15	0xbd5e56d6	-0.054282032
16	0xbce208ad	-0.027592028
17	0xbcdbf34a	-0.026849408
18	0xbc6093a4	-0.013707075
19	0x3d52f15b	0.051499706
20	0xbc54fa94	-0.012999196
21	0xbbbb280f	-0.0057115625
22	0x3be019f5	0.006839032
23	0xbd1aabc3	-0.03776146
24	0xbd437efd	-0.047728527
25	0xbcd4692b	-0.025929054
26	0x3c64368d	0.013929022
27	0xbc705337	-0.014668277
28	0x3d11d3fe	0.035602562
29	0x3d1fceb1	0.039015476
30	0xbcf7c3b4	-0.030244686
31	0x3cec3faa	0.028838951
32	0xbd02d65d	-0.031942714
33	0x3ce776da	0.028254915
34	0xbc0d23ab	-0.008614461
35	0x3cf83a68	0.030301288
36	0x3bb2af6b	0.0054530404
37	0x3d2a74e6	0.04161539
38	0x3cc31737	0.02381478
39	0xbcdd3887	-0.027004493
40	0xbcca5fc4	-0.024703868
41	0xbd5057b3	-0.050864886
42	0xbcdd8c99	-0.027044581
43	0xbcd9d60a	-0.02659132
44	0xbcfb4194	-0.030670919
45	0xbcde838e	-0.02716234
46	0x3d53e025	0.051727433
47	0xbc3d5ae1	-0.011557312
48	0x3d0ad4d4	0.033894375
49	0x3b0d651f	0.0021575165
50	0xbd2b7243	-0.041857015
51	0x3c26e947	0.010187454
52	0x3d116021	0.035492066
53	0xbd09a2d4	-0.03360255
54	0xbc94d4d6	-0.018167894
55	0xbc2353b8	-0.009968691
56	0xbd211d24	-0.03933443
57	0xbd1f2a19	-0.038858507
58	0x3ba163e4	0.004925238
59	0x3c977c49	0.018491881
60	0x3ce04a47	0.027379168
61	0x3c5c1528	0.013432778
62	0xbd1e6282	-0.038668163
63	0xbca141e3	-0.019684738
64	0xbd3483dc	-0.044071063
65	0xbc3ecefb	-0.011646028
66	0xbc70fa46	-0.014708107
67	0x3cac064a	0.020999093
68	0xbc83fd31	-0.016111942
69	0x3d589352	0.05287487
70	0x3cbcc7fe	0.023044582
71	0x3aab678a	0.0013077122
72	0x3c825677	0.01591037
73	0x3cdf8357	0.027284307
74	0x3cf74e0a	0.03018858
75	0x3cad5842	0.021160249
76	0xbd13611b	-0.03598128
77	0x3d22f6ad	0.03978603
78	0x3d41bc2e	0.047298603
79	0xbd046a1e	-0.032327764
80	0xbd61640d	-0.055027056
81	0xbd165d0a	-0.036709823
82	0x39838ddc	0.0002509196
83	0xbd335c75	-0.043789346
84	0x3b522daf	0.0032070687
85	0xbd429c27	-0.0475122
86	0x3d18de09	0.037321124
87	0xbd0f6453	-0.035007786
88	0x3d0b3978	0.033990353
89	0xbc9eb9bc	-0.019375674
90	0x3c19d94c	0.0093901865
91	0xbcb4d614	-0.022074737
92	0xbd013f97	-0.031554785
93	0xbca479a4	-0.020077534
94	0xbccca839	-0.024982559
95	0x3c65f174	0.014034618
96	0xbc8e28d6	-0.017353456
97	0xbd21081a	-0.039314367
98	0xbc9a5e86	-0.0188439
99	0x3d0acb3b	0.033885222
100	0xbd1ba90a	-0.038003005
101	0x3d206c06	0.03916552
102	0xbcaadd3f	-0.020857451
103	0x3c5310d6	0.012882432
104	0x3d3bda62	0.045862563
105	0xbd22fbe1	-0.03979099
106	0xbd3a3b4a	-0.0454667
107	0x3b0e1258	0.0021678414
108	0xbcbc59f0	-0.022992104
109	0xbd3198c5	-0.043358583
110	0x3cd88dba	0.026434768
111	0x3d31cfd9	0.04341111
112	0x3bd105ba	0.0063788565
113	0xbd302f32	-0.04301376
114	0xbc0745e7	-0.008256412
115	0xbae748de	-0.0017645617
116	0x3d35867f	0.04431772
117	0x3c99dc7e	0.018781897
118	0xbca6b0fb	-0.020348063
119	0xbc95f0eb	-0.018303355
120	0x3c6870ac	0.014187019
121	0xbcda7c9c	-0.026670747
122	0xbd6096f1	-0.05483145
123	0x3d06541e	0.032795064
124	0xbcf56dcc	-0.029959582
125	0xbce9bf9a	-0.028533746
126	0xbb9bffbe	-0.0047607115
127	0xbc2f03ca	-0.010682056
128	0x3d2da58c	0.042394206
129	0x3c30b467	0.010785199
130	0x3d1f03c0	0.038821936
131	0x3cd954fe	0.026529785
132	0xbc7f8c46	-0.015597409
133	0xbc6b738c	-0.01437081
134	0x3d3f37e5	0.046684165
135	0xbd2b5849	-0.041832242
136	0x3c51ed42	0.012812914
137	0xbaf1d0f2	-0.0018449111
138	0x3d0c8e7d	0.034315575
139	0x3d2af0e8	0.041733652
140	0xbd0611de	-0.032731883
141	0xbcf9b781	-0.03048301
142	0x3c044944	0.0080741085
143	0x3cef36c6	0.029200923
144	0xbd070417	-0.032962885
145	0xbd5a2876	-0.053261243
146	0x3d067ce6	0.032833956
147	0x3bf40af7	0.007447596
148	0x3d353456	0.044239365
149	0x3d2f58f2	0.042809434
150	0xbcb3c67b	-0.021945229
151	0xbd228d03	-0.03968526
152	0x3c5b9cec	0.013404112
153	0x3cdb4c78	0.026769862
154	0x3d110bc6	0.03541162
155	0x3cf5212c	0.029923044
156	0xbd402a9e	-0.046915643
157	0x3b952eb9	0.004552689
158	0xbcd3627f	-0.025803803
159	0x3d009593	0.031392645
160	0x3cb99607	0.022654546
161	0xba191f07	-0.000584111
162	0x3d093bb2	0.033504196
163	0xbc9f31be	-0.019432899
164	0x3d219844	0.039451852
165	0xbd1b135e	-0.037860267
166	0x3d1d8deb	0.03846542
167	0xbd249f7c	-0.04019116
168	0x3d0ae182	0.033906467
169	0x3c424d3d	0.011859235
170	0xbcdf5b75	-0.02726529
171	0x3d2c064b	0.04199819
172	0xbcc79be0	-0.02436632
173	0xbc76b6a5	-0.015058194
174	0x3d30455c	0.043034896
175	0x3c494411	0.012284295
176	0x3ccccea9	0.025000887
177	0x3c97b283	0.018517738
178	0x3cf65cd1	0.030073555
179	0x3cd8ee66	0.026480865
180	0x3d1a6888	0.037697345
181	0x3d039cd8	0.032132
182	0x3d0e4b47	0.03473976
183	0xbd146f70	-0.036239088
184	0x3ceb1629	0.02869709
185	0xbd2d0598	-0.042241663
186	0xbca722cf	-0.02040234
187	0x3c7d192b	0.015447895
188	0xbd2bd093	-0.04194696
189	0x3bdc3245	0.00671986
190	0x3c4d5cb5	0.01253431
191	0x3d0060d8	0.031342357
192	0xbc97e99b	-0.018544009
193	0x3c97b2e1	0.018517913
194	0x3cc7ad6e	0.02437469
195	0xbd314caa	-0.043286003
196	0xbd2709f8	-0.04078099
197	0xbd3aad4d	-0.04557543
198	0xbc73a6f6	-0.01487135
199	0xbc94b6bf	-0.018153546
200	0x3c95ce55	0.018286863
201	0x3d1f0eeb	0.038832586
202	0x3d3d3579	0.046193574
203	0xbbf19918	-0.0073729865
204	0xbcb1033c	-0.021607988
205	0xbc5415c0	-0.012944639
206	0xbc83109d	-0.015999133
207	0xbd4f2408	-0.05057147
208	0xbd5dd973	-0.054162454
209	0x3c9f525c	0.019448452
210	0x3d4b7367	0.049670603
211	0xbd0dd20b	-0.03462414
212	0x3c64fb6e	0.013975961
213	0x3c9de077	0.019272072
214	0xbcabd778	-0.020976767
215	0x3d0c70dc	0.03428732
216	0xbc9aa5e9	-0.01887794
217	0xbd595bf8	-0.053066224
218	0xbbc9a007	-0.00615311
219	0xbc91f0c4	-0.017815001
220	0xbcc03f31	-0.023467632
221	0x3c58205a	0.013191307
222	0x3cc16b87	0.023610843
223	0x3ce7b93d	0.02828657
224	0x3cba61d7	0.022751732
225	0x3d2c73ce	0.042102627
226	0xbc1eac49	-0.009684631
227	0xbd0b2502	-0.03397084
228	0xbd01de0d	-0.031705905
229	0x3c6f083f	0.014589368
230	0xbccc7f8f	-0.024963168
231	0x3d2f5924	0.04280962
232	0x3c8919f2	0.016736005
233	0xbc35dba2	-0.011099728
234	0xbc4eff2b	-0.012634079
235	0xbd20def4	-0.039275125
236	0x3d434a35	0.04767819
237	0xbcd4914e	-0.025948193
238	0xbd105621	-0.03523839
239	0xbc9e9225	-0.019356797
240	0x3d15552a	0.036458172
241	0xbd2387a1	-0.039924268
242	0xbd47a938	-0.048745364
243	0xbd23a243	-0.039949667
244	0xbd2e43ad	-0.04254501
245	0x3c4d4569	0.012528756
246	0xbd11602d	-0.03549211
247	0xbcd2a025	-0.025711128
248	0x3d36371d	0.044486154
249	0x3cfe815f	0.031067548
250	0xbcc5d355	-0.024148623
251	0x3c39d0d3	0.0113412915
252	0x3c67dbfd	0.01415157
253	0x3c27b42f	0.01023583
254	0x3d2ae3e7	0.04172125
255	0xbd40c7a5	-0.047065396
