Data/best_random_params_1.pth (torch, 276170 bytes, 5 tensors)

linear1.weight f4 [128, 13]
000000 d8 6f ec 3d 6b 4a 35 3e ba ba 1e be 3d 1f 85 3e
       0.1154477 0.1770417 -0.15500918 0.26000395
000010 88 5c 8d bc 67 bd 9b 3e f4 3c 91 be a0 8a 29 be
       -0.017256036 0.3041794 -0.28366816 -0.16556787
000020 1f 77 e0 bc 1b 2d 80 be 3d c0 86 3d e2 93 ab bd
       -0.027400551 -0.25034413 0.06579635 -0.08377816
000030 ef 49 c9 bd 6f 31 65 be 4d 57 40 3e 6a 09 24 be
       -0.09828555 -0.22382139 0.18783303 -0.16019216
000040 f4 40 27 be ec a1 82 be 9b 7e f6 3d 65 34 0f be
       -0.16333371 -0.25514162 0.12035867 -0.1398483
000050 58 96 74 3e 87 21 fc 3d 11 6e 81 bd 92 4f 4d be
       0.23885477 0.12311082 -0.063198216 -0.20049885
000060 18 e8 64 3e 45 8d cb 3d 8e 79 01 3e 6d 88 99 3d
       0.22354162 0.099390544 0.12644026 0.07496724
000070 e7 f3 59 3e 70 95 54 3e b8 96 0b be ea ee 0e 3e
       0.21284448 0.20760131 -0.13631713 0.13958326
000080 56 1a 5d 3c cc 60 eb bd 35 7b 1a 3e 27 63 0c be
       0.0134950485 -0.11493072 0.15086062 -0.13709699
000090 56 ec b0 bd fc 8b 8a 3c 3a be bc 3d bb b1 4b be
       -0.086388275 0.016912453 0.0921597 -0.19892018
0000a0 a1 c1 78 3e f9 ce 81 be 58 58 66 be 5b 78 4e 3d
       0.24292614 -0.2535322 -0.22494638 0.05040775
0000b0 74 2a 2d be 16 dd 0e be b7 4e c0 ba 57 55 3b 3e
       -0.16910726 -0.13951525 -0.0014671896 0.18294273
0000c0 c1 58 0f 3e 70 e2 4c be 66 c3 c6 bd cb d8 99 3d
       0.139987 -0.20008254 -0.09705238 0.07512053
0000d0 dd db 73 3e ec 4d 69 be 2d 46 bd bd 70 1f 80 be
       0.2381434 -0.22783631 -0.092419006 -0.25023985
0000e0 9b 4e 37 3e 0c aa 12 3e 0e 60 9d bd fc ff 96 3d
       0.1790108 0.1432268 -0.076843366 0.07373044
0000f0 9e f8 83 bc 55 31 49 be 75 4c 0e 3e be f0 83 be
       -0.01610976 -0.19647725 0.13896354 -0.2576961
000100 b0 24 69 be 3a ba d9 3d 95 db 99 3c 07 c4 84 be
       -0.22767901 0.10631223 0.018781463 -0.25930807
000110 7a 10 a8 3d 5c c3 91 3e 37 d6 9f bd f7 8b 59 3e
       0.08206268 0.2846936 -0.0780453 0.21244799
000120 4b 1d b3 bd e7 7a fe 3d 1d 53 41 be e7 7e ee bc
       -0.087458216 0.124257855 -0.18879361 -0.029113246
000130 88 96 8c 3e cf 99 ae 3d a0 6d 20 3e d3 7d 91 be
       0.27458596 0.085254304 0.15666819 -0.2841631
000140 7b 48 3c be 8f f0 89 be cf 43 52 3e d7 aa 0a 3e
       -0.18387024 -0.26941344 0.2053368 0.13541733
000150 c3 14 f0 bd 44 f2 0d be 48 23 89 bd 90 df f1 3d
       -0.1172271 -0.13861948 -0.066961825 0.11810219
000160 95 1e 34 3e 48 c3 a0 3c d3 a3 0c 3d a7 a8 b0 bd
       0.17589791 0.019624367 0.034335922 -0.08625918
000170 5c 51 05 3e c4 dd e0 bd 22 17 55 bd 3b df 86 3e
       0.13019317 -0.109797984 -0.052024014 0.26342186
000180 5b de 07 be b5 a2 df bd 12 7a b4 bd 19 af 3e 3e
       -0.13268416 -0.10919706 -0.088123456 0.18621482
000190 40 e6 8b be 5c 7e 94 3e 6b b0 f6 bd be 77 82 3d
       -0.27324104 0.29002655 -0.12045368 0.06370495
0001a0 06 34 04 3d 1d 27 80 3e b3 73 d5 bd 01 51 d9 bd
       0.032276176 0.2502984 -0.104224585 -0.106111534
0001b0 a8 fa bb bc e2 8b f7 bc 6f 13 07 bd a3 23 31 3d
       -0.02294667 -0.030218069 -0.032977518 0.043246876
0001c0 45 b2 78 be 21 86 7b 3d 34 73 74 3e 5c b9 60 3d
       -0.24286754 0.061407212 0.23872072 0.054864272
0001d0 ee 70 65 bb 26 c4 25 be 88 e2 06 3b 17 7d 9d 3d
       -0.0035009938 -0.16188106 0.00205818 0.076898746
0001e0 10 b3 67 3e ab 20 1b be 34 e8 35 bd fe 8a e1 bd
       0.226269 -0.1514918 -0.0444109 -0.11012839
0001f0 6e 00 19 3e 81 74 60 3c e2 a9 0a 3e bd 8b 54 be
       0.1494157 0.013699652 0.13541368 -0.20756431
000200 82 f9 4b be 50 f9 5b be ce 30 19 3e f7 36 5c 3e
       -0.19919398 -0.21481824 0.14960024 0.21505342
000210 6d 22 d2 3c 62 df 4e 3e 7e dc e5 3d d0 ac 81 be
       0.025651181 0.20202401 0.11223696 -0.25327158
000220 89 b9 0f be a3 64 09 3c 86 f6 22 bd d8 04 00 be
       -0.1403562 0.00838581 -0.039785884 -0.12501848
000230 5e 33 eb bd e7 c0 1a be 88 c8 47 3d 12 9e 87 3e
       -0.11484407 -0.15112649 0.048775226 0.26487786
000240 63 87 84 bc bb ac 80 3e 9c bb 82 be 9a c1 90 bc
       -0.016177839 0.25131783 -0.2553376 -0.017670441
000250 11 db d9 bc d3 ef ee bd 96 be 3c be 79 ed 73 be
       -0.026593717 -0.116668366 -0.18432078 -0.23821057
000260 0d 10 7b 3e c5 b1 44 be f6 5a c6 bc 3e d4 a1 bd
       0.24517842 -0.19208439 -0.024213295 -0.0790181
000270 58 54 60 bd 00 f2 28 bb 89 5b 78 be 8d b8 86 bc
       -0.054767936 -0.002577901 -0.24253668 -0.016445423
000280 eb c6 97 be fb 7b 1b be 57 b6 83 bd 84 53 1d 3d
       -0.2964395 -0.15184014 -0.06431263 0.038409725
000290 34 72 22 bd c9 31 16 be 65 4f cc bd d6 73 9c 3e
       -0.039659694 -0.14667429 -0.09976081 0.30557126
0002a0 67 7a ab 3d f6 51 46 bd ee fc 92 bd 20 24 3a 3d
       0.08372956 -0.048418008 -0.07177149 0.045444608
0002b0 9f 1b 9c 3d 41 8a 96 bd 6e 4e 0a be 5c 43 ca 3d
       0.07622456 -0.073505886 -0.13506481 0.09876129
0002c0 77 b7 df 3d db bf 17 3e a8 7c 56 3e fd 99 4f 3d
       0.10923665 0.14819281 0.2094599 0.050683964
0002d0 97 76 60 be ca 4f 6a 3e 54 c2 3b be 40 13 83 be
       -0.21920238 0.22882 -0.18335849 -0.25600624
0002e0 07 e3 3a 3e 54 a5 27 be a1 d5 83 3e b9 3c f4 bd
       0.18250667 -0.16371661 0.25748923 -0.119256444
0002f0 c6 ca c5 bd 0e 9e 80 be 1b cf 10 be 17 b8 64 3e
       -0.096578166 -0.25120586 -0.14141504 0.2233585
000300 2d 90 4d 3e 16 d0 72 3e 2d cb 8e be be 44 75 bd
       0.2007453 0.23712191 -0.27889386 -0.05988001
000310 39 94 85 3e 2f 69 64 be 70 4f c5 3d 72 99 09 3e
       0.26089647 -0.2230575 0.09634292 0.13437441
000320 7e d1 0e 3e c4 7c b6 bd 5d 74 44 3e e8 86 c2 bd
       0.13947102 -0.08910516 0.19185014 -0.094983876
000330 8d f5 ee 3b f7 d6 a4 3c 79 0a 62 bc 50 19 64 3e
       0.0072924555 0.020122034 -0.013796442 0.22275281
000340 eb 42 41 be 3d 9a ab 3d 5c ca b7 bd 9c 8d 0b 3e
       -0.18873183 0.08379028 -0.08974144 0.13628238
000350 7a 02 90 3e 31 3f 4c 3e fc 3c 74 be 04 15 a0 3e
       0.2812689 0.1994598 -0.23851389 0.31266034
000360 a4 de 18 3e 39 ed 16 bd b2 46 51 3e 39 c5 9c bc
       0.1492868 -0.036847327 0.20437124 -0.019137012
000370 b3 aa 64 3e c7 4c ee 3d ce b7 97 3e ca 88 1b 3c
       0.22330742 0.11635738 0.2963242 0.009493062
000380 17 ec 71 3e 6b 2d 43 be 27 13 94 3e 71 d5 78 3c
       0.23625217 -0.19060294 0.28920862 0.015187607
000390 ee 7b f4 3d 52 de fd 3d d5 34 4a be 25 38 90 bd
       0.119377 0.1239592 -0.19746716 -0.07041959
0003a0 95 74 c8 bd bb 86 81 bd ac 3c 97 3e 30 0c 48 be
       -0.09787861 -0.06324526 0.29538476 -0.19535899
0003b0 75 33 75 be 07 06 34 3e 95 75 83 3e d5 f9 95 bd
       -0.2394541 0.17580424 0.25675645 -0.07323042
0003c0 54 26 89 3e 66 ef 1b be 44 62 42 3e 87 a1 27 be
       0.26787055 -0.15228042 0.18982798 -0.16370212
0003d0 63 00 05 be ac 33 0f 3e 31 4f df bd 7b b2 8f 3c
       -0.12988429 0.13984555 -0.109037764 0.01754116
0003e0 0c b9 88 be 37 76 b8 3d 3d de 8d 3e f8 2f 11 be
       -0.2670368 0.09006923 0.27708617 -0.14178455
0003f0 49 b7 dd bc 77 0a 61 be a6 38 b5 3c f8 ed 33 3c
       -0.027064936 -0.21976648 0.022121739 0.010982029

linear1.bias f4 [128]
000000 9b 02 44 be 35 45 dd 3d 62 ee 6a 3e 8d ed 4f 3c
       -0.19141619 0.10804216 0.22942498 0.012690914
000010 55 53 33 3d cd c4 23 3d a2 f9 98 bd f5 b4 00 be
       0.043780643 0.039982606 -0.07469489 -0.1256903
000020 07 91 47 be a8 ad 38 bb 21 47 93 3e 59 20 72 3e
       -0.19488917 -0.002817968 0.28765205 0.23645152
000030 7d 55 72 3e 8f c0 8b 3e 2f 6f a8 bd b2 3a 8c be
       0.23665424 0.27295348 -0.082243316 -0.2738853
000040 cb 77 6f be 4c 5d 5e 3e bc 75 16 be 92 f4 3f 3e
       -0.23385541 0.21715277 -0.1469335 0.1874564
000050 ce b3 8f 3e 72 0a 93 3e 78 04 90 3e 74 23 86 be
       0.28066868 0.28718907 0.2812841 -0.26198924
000060 6b eb fc bc e7 1f 43 3e 84 ab 10 be be df f4 bd
       -0.030873975 0.19055139 -0.14127928 -0.11956738
000070 16 a4 97 bd 1e 8c 07 3e f5 52 66 be 6d 98 09 3d
       -0.07404344 0.13237044 -0.22492583 0.03359263
000080 56 22 bd bd 41 0a da 3d 0a 25 59 3e 39 fd 5b be
       -0.09235065 0.10646487 0.21205536 -0.21483316
000090 14 72 60 3e b0 ff 5b 3e a4 e0 7f 3d 96 7b 66 be
       0.21918517 0.21484256 0.062470093 -0.22508082
0000a0 fd d0 ab bd f0 4c 62 3e 4d 3a 05 3e 0d fd b3 3d
       -0.08389471 0.22099662 0.13010521 0.087885
0000b0 d2 82 2c 3c 9e e4 00 3e 2e 57 18 bd f8 f8 23 be
       0.010529237 0.1258721 -0.037192516 -0.16012943
0000c0 cc ac 6e be 46 c2 36 3e 4d 59 a0 3e c8 38 99 3e
       -0.23308104 0.17847547 0.3131813 0.29926133
0000d0 0b bc 93 3e 3d 9c e3 3a d1 07 06 3e a6 36 b4 3d
       0.28854403 0.0017365288 0.13088919 0.08799486
0000e0 aa b9 b1 bd 1a c2 68 be 97 8e 45 3d bb 1a e1 3d
       -0.08677991 -0.22730294 0.048231687 0.109914266
0000f0 af d9 91 be 4b 99 56 3e 97 98 50 be bf 25 4a be
       -0.28486392 0.20956914 -0.20370708 -0.19740961
000100 6f 14 d2 3d b8 4f d1 bd ac 45 7d be bc e4 8b bd
       0.10257804 -0.10220283 -0.24733609 -0.06830737
000110 87 6b dd bc 7b 77 4c be ac d0 2f be 2b d9 13 be
       -0.027028812 -0.19967453 -0.17169446 -0.14438312
000120 19 42 90 bd 08 e5 69 3d b6 c6 4a 3e d5 da b0 3b
       -0.07043857 0.057103187 0.19802365 0.0053971806
000130 e3 92 64 be f7 ff b4 3d 96 59 5c 3e 12 68 a9 bc
       -0.22321658 0.08837884 0.2151855 -0.020679507
000140 3c 3c 13 3e 71 00 ff 3d 5a d6 2e be 4f 7e 70 be
       0.14378446 0.12451256 -0.17073956 -0.23485683
000150 34 51 46 3e 04 8d f0 bd f8 69 68 be 81 6f 9a 3e
       0.19366914 -0.117456466 -0.22696674 0.30163196
000160 36 2b 4d 3c 9b fc 6e 3d 98 da 93 bc 1b 17 4a be
       0.012522509 0.058346372 -0.01804857 -0.19735377
000170 5e 49 55 be 3b 4e 66 bc 58 d3 93 3e ea 19 dc bd
       -0.20828769 -0.014056738 0.2887218 -0.1074713
000180 88 79 f7 3d 38 62 b6 3d 55 b6 97 3e 1a e9 6a be
       0.12083727 0.089054525 0.29631296 -0.22940484
000190 54 72 93 3d 8a c2 0b 3e 8a 7b 42 be 80 b2 91 3d
       0.07199541 0.1364843 -0.18992439 0.07114124
0001a0 6a b5 3d be c8 06 49 bd 83 9a df bd ec 40 00 3e
       -0.18526235 -0.049078733 -0.10918143 0.12524766
0001b0 ab 8f 18 be ac 3b e0 bd 2b e6 55 be b8 0d 5c 3e
       -0.14898555 -0.109488815 -0.20888583 0.21489608
0001c0 bb 4a 5d be fd 15 55 3e ba d1 71 be 95 91 55 3d
       -0.21610539 0.20809169 -0.2361516 0.05214079
0001d0 b9 b2 a3 3d e5 ac 89 bb 05 f3 9d 3e 43 f6 76 3d
       0.07993073 -0.004201519 0.30849472 0.060293447
0001e0 3a 93 19 3e a0 ff 9f bc 7e ad 3b 3e 42 3b 82 3d
       0.14997569 -0.019531071 0.18327901 0.06358959
0001f0 0b 7d 44 be 15 02 2b 3e f1 81 46 be 26 8f 18 be
       -0.19188325 0.16700013 -0.19385506 -0.14898357

linear2.weight f4 [512, 128]
000000 6c 87 37 3d 40 7a 57 3d a7 d9 21 bd 91 2d e9 3b
       0.044806883 0.05260682 -0.03951421 0.0071160276
000010 63 81 9b 3a ce d3 85 bd 38 5f 3f 3d 36 b4 5c 3d
       0.0011864122 -0.06534539 0.046721667 0.0538828
000020 55 d7 6b bd 9a 20 83 3d 8c 4a 4b 3d 75 3c bc 3c
       -0.057578404 0.06402703 0.04963164 0.022978047
000030 99 cb 09 3d 7a 9b ba bc 8c 4a 85 3d e1 6f a4 3c
       0.03364143 -0.022779215 0.06508359 0.02007288
000040 bf 3c 16 bd 78 2c 9d bd d1 f0 bc bc ce d0 7c bd
       -0.036679026 -0.07674497 -0.023064049 -0.06172257
000050 ea d7 32 bd 8c f1 f5 bc 4b 85 99 3b 7b f9 80 3c
       -0.043662943 -0.030022405 0.004685079 0.015743962
000060 76 cc 8f 3d 7b f7 42 bd 09 80 5a bc 10 0c 81 bd
       0.0702142 -0.047599297 -0.01333619 -0.06301129
000070 29 d5 69 3d a6 7f c9 bc d6 5a 43 3c 0d e3 97 bc
       0.05708805 -0.024597 0.011923512 -0.018540883
000080 3c 40 af bd 15 e2 e2 bc 5a 1b 75 bd 28 9b 32 bd
       -0.085571736 -0.027695695 -0.059840538 -0.043605
000090 56 ea 81 3d 85 e6 aa 3d e2 fa 28 3c b0 e7 6b 3d
       0.06343524 0.08344749 0.010313721 0.057594
0000a0 44 f2 a3 bd 74 55 f5 bc 99 ac 99 bd b2 d9 52 bd
       -0.08005193 -0.029947974 -0.075036235 -0.05147714
0000b0 9c 4c 0a bd 7c b1 6d bc 28 db 2d bd 91 41 22 3c
       -0.033764467 -0.014507648 -0.04244533 0.009903328
0000c0 3f 75 8b 3d 74 7c 39 bd 65 eb 7e 3b 0a de 1a 3a
       0.06809472 -0.045284703 0.003889763 0.000590772
0000d0 ee 71 4c bd 81 b2 2d 3d 98 d6 a0 3d 53 7b 8a 3d
       -0.04991334 0.042406563 0.078534305 0.067618035
0000e0 46 27 9b 3d 4d e0 02 3d e8 aa dd 39 a5 04 b6 3d
       0.0757585 0.03195219 0.0004227974 0.088876046
0000f0 19 0b 18 bd c6 88 04 bd 3d b5 b5 bd f9 bc 50 3d
       -0.03711996 -0.032357 -0.08872459 0.05096147
000100 e2 40 8b 3c d9 84 8f 3c c2 35 de bd 57 6f 30 3d
       0.016998712 0.017519401 -0.10850097 0.043074932
000110 19 b3 c8 bc 6b 27 9a 3d e0 c8 71 3b 36 0f c3 3c
       -0.024499463 0.0752705 0.0036893412 0.023810964
000120 34 4f c2 bb df a9 0b bd 9d b9 5c bb 0a 15 14 3c
       -0.005929852 -0.03409755 -0.003367997 0.009038219
000130 f4 d2 52 3d ea 41 8d 3b 6a 5a 03 3d 4a ec e1 3c
       0.05147071 0.004310836 0.032068647 0.027578492
000140 ac d2 b9 bc fd 1a a9 3d 2c 75 7c 3d 98 d7 70 bd
       -0.022683464 0.08257101 0.06163518 -0.058799356
000150 f3 f7 f9 bc 2a e7 2b 3d 47 96 60 3d 3c 29 ab 3d
       -0.03051374 0.041968502 0.054830816 0.08357474
000160 84 f7 0c 3d 13 38 0f 3d f4 c1 1a 3d 90 61 d9 bc
       0.034415737 0.034965586 0.037782624 -0.02653578
000170 56 80 1f bd 87 ed 3a bd 27 d5 9c bc 2f c8 06 3d
       -0.03894075 -0.04563668 -0.019144608 0.032905754
000180 88 25 00 bd 0b c0 c9 ba 19 03 c8 bc d2 92 7d 3d
       -0.031285793 -0.0015392316 -0.02441554 0.061907597
000190 78 fd 13 bc 6a c2 9a 3d e3 7d 28 bd c3 4a 9b 3d
       -0.0090326 0.07556613 -0.04113568 0.07582619
0001a0 5e 23 91 bd 42 34 02 3d 05 1a 99 3d 5f 34 a5 bd
       -0.07086824 0.03178812 0.07475666 -0.080666296
0001b0 c4 d6 94 bd 08 0b f0 bc bb 3f 9f bb 0d 17 40 3d
       -0.07267526 -0.029302135 -0.004859892 0.046896983
0001c0 47 82 83 3b 5d e3 fd bc d6 68 94 bd 86 69 96 3d
       0.004013333 -0.030992204 -0.07246558 0.07344346
0001d0 9a fb 03 bd 65 85 2b bc 3c 9a 27 3d 11 01 77 3d
       -0.032222368 -0.010468815 0.040918574 0.06030375
0001e0 e3 a8 97 bd 9a 10 4f 3d 72 8b c3 bd 51 e1 a9 3d
       -0.074052595 0.05055294 -0.095480815 0.08294929
0001f0 45 d3 3c 3d 4d 9a bc bc a3 f9 28 3d 93 26 1b 3c
       0.04609992 -0.023022795 0.041253697 0.009469646
000200 b9 d4 0b bd c8 72 2f 3d 2a ed 9b 3c 96 91 a2 3c
       -0.034138415 0.042834073 0.019033987 0.019844811
000210 fc 1f 97 3d 14 dd 95 3d 04 2a 05 bd 35 60 0f 3d
       0.073791474 0.07317558 -0.032510772 0.03500386
000220 27 56 96 bd 6e ea b2 bc 31 3a 5f 3d 29 da 39 bd
       -0.07340651 -0.0218403 0.054498855 -0.04537407
000230 ab d9 9b 3d 6b 0d b7 bd 99 78 6e bd f6 1f 5a bc
       0.07609876 -0.08938106 -0.05822048 -0.013313284
000240 f3 70 3b bd eb 37 98 bd d0 46 06 bd df 01 cc 3d
       -0.045762014 -0.074325405 -0.032782376 0.099612944
000250 3e 92 6a 3d d1 40 8b bd 6f ff aa 3d f1 21 20 bc
       0.057268374 -0.06799472 0.08349501 -0.009773717
000260 64 0c b1 3d 7b d9 e2 bd df 40 b9 bd 86 12 00 bd
       0.086449414 -0.11076637 -0.09045576 -0.031267665
000270 15 87 74 3d 44 f7 64 bd e6 57 86 bd dc 74 bd 3c
       0.059699137 -0.055899873 -0.06559734 0.023127012
000280 29 52 11 bd 26 81 94 bd 8a 6d ac bd a4 2a c3 3d
       -0.035478745 -0.072511956 -0.084193304 0.095296174
000290 d3 d8 56 3d 52 3c 09 3d 89 5e aa bd bc e6 5f 3d
       0.052452873 0.03350479 -0.083188124 0.054663405
0002a0 6a 45 19 bd 86 ea b9 3d ad 92 0d 3d 03 56 44 3c
       -0.037419714 0.09077935 0.03456371 0.011983397
0002b0 ed 08 e4 39 1f 6a c1 3c a3 51 ac 3d 21 21 87 3d
       0.000434942 0.023610173 0.084140085 0.06598116
0002c0 f7 9b ea 3b 15 85 38 3d 29 77 77 bd db 02 31 bd
       0.0071597057 0.045048792 -0.060416374 -0.043215614
0002d0 b4 dd 30 3b 2c 0c 70 3c 98 64 a3 bc 57 67 c5 3d
       0.0026987614 0.0146513395 -0.019945428 0.09638851
0002e0 f9 93 91 bb 0e 24 ec bc 03 a5 74 3d 4d b4 71 bd
       -0.0044426885 -0.028825786 0.05972768 -0.05900984
0002f0 5f 10 98 3d 79 4c 51 bc 1e 12 99 3c 85 cd c6 3c
       0.074249975 -0.01277458 0.018685397 0.024267921
000300 04 6c 49 3d f5 a9 f9 bb a7 99 d3 bc 2c cc 9a bc
       0.049175277 -0.0076191374 -0.025830103 -0.018896185
000310 b7 ca 59 bd a6 8a 56 bc b4 83 d7 3b 34 8c 1a bd
       -0.05317184 -0.01309458 0.0065769795 -0.037731364
000320 43 fb 75 bd 8e ab 85 3b 61 4a a5 3c aa 97 3d 3d
       -0.060054075 0.004079289 0.020177068 0.046287216
000330 45 73 ae 3b 9d 38 07 bd 85 07 ad 3d 6c 36 6e bd
       0.0053238 -0.033012975 0.084487 -0.05815737
000340 89 c4 4b bd 47 ce c0 bc 5e a8 87 3d 26 99 a7 3c
       -0.049747977 -0.02353586 0.0662391 0.020458769
000350 ca 02 e8 bc 7f 7b 72 bd b8 0d 57 3d a9 95 73 bd
       -0.028321642 -0.059199806 0.052503318 -0.0594689
000360 10 ae 94 bd 46 03 15 3d a1 4a 33 3d 42 13 59 3d
       -0.07259762 0.036380075 0.043772344 0.05299688
000370 84 13 50 3c 34 f9 c3 bd eb a1 47 bd 6e dd a8 bd
       0.012699965 -0.09569016 -0.0487384 -0.08245359
000380 a1 c3 02 3c 29 a4 bf 3d dc b5 8d bd 0e 2f 0e 3d
       0.007981212 0.09357483 -0.069194525 0.034712844
000390 66 28 92 3b 37 5f 50 3d d1 8e 36 bc 88 8d 58 3d
       0.0044603823 0.050872054 -0.0111424485 0.05286935
0003a0 98 ed b6 3d e3 e4 65 3d a7 21 33 bd aa dc 30 bd
       0.08932036 0.056126487 -0.043733265 -0.04317919
0003b0 99 ae 89 bd ac eb c3 bd ff 8f 77 bd fe b5 37 bc
       -0.06722755 -0.09566435 -0.06044006 -0.011212824
0003c0 05 e8 ad bd 9c 1f 8f bd c3 a2 bd 3c 50 b1 88 bd
       -0.0849152 -0.06988451 0.0231489 -0.06674445
0003d0 78 67 c1 3d e4 8a d2 bc 80 b3 42 3d 41 65 55 ba
       0.09443563 -0.025700994 0.047534466 -0.0008140393
0003e0 d4 06 83 bc 48 2c 03 3c f1 4b 86 3d aa 0c 43 3d
       -0.015994467 0.008006163 0.065574534 0.0476195
0003f0 70 25 24 3d 97 f6 9d bc ca 1f b1 bd 23 12 d6 bd
       0.040074766 -0.019282622 -0.086486414 -0.10452678

linear2.bias f4 [512]
000000 f5 47 fd bc da 95 95 bc d5 cb 7a 3c a3 09 10 bd
       -0.0309181 -0.018259931 0.015307386 -0.03516544
000010 63 56 90 bd 18 30 88 3c c5 4a b0 3d 89 33 38 bd
       -0.07047727 0.016624495 0.08608011 -0.044971023
000020 34 61 2d 3d d9 cc 4d 3b ac 8b b0 bd 25 62 3b bc
       0.04232903 0.0031402616 -0.0862039 -0.011436974
000030 7f 71 cb 3c ab 82 14 bd 20 5e 55 bc d8 06 ea 3b
       0.024834393 -0.036257427 -0.013022929 0.007141929
000040 d9 d5 e3 3d b8 13 8d bd ef 10 02 3d c6 8a 9f bc
       0.111247726 -0.06888527 0.03175443 -0.019475352
000050 28 f5 49 3c a2 cf dd 3c 66 03 30 bd 3f ea 95 3c
       0.012326516 0.027076546 -0.04297199 0.018300174
000060 99 99 a8 3d 84 cd a7 bd ac f8 7d bd 7e 0b b1 bb
       0.082324214 -0.08193496 -0.06200473 -0.0054029813
000070 89 e1 86 bd e2 06 11 bb bf 0e 44 3d 39 db 85 3d
       -0.06585986 -0.0022129347 0.047865625 0.06535954
000080 63 26 4a 3d bf af 5d bc ec 8d 7e bd 76 24 e5 3d
       0.049353015 -0.013530671 -0.062147066 0.11188595
000090 5e fe 89 bd 93 35 21 3d a4 49 40 3d e9 db 9e bc
       -0.0673797 0.039357733 0.04694523 -0.01939197
0000a0 83 ae 3d bd 13 c2 59 bc 61 a7 f1 3c 46 5d 19 3d
       -0.046309005 -0.0132909 0.029498758 0.037442468
0000b0 d0 c9 12 bd d7 4d 1e bc cd 0d cf bc 25 fc 34 bc
       -0.035836995 -0.009662113 -0.025275135 -0.011046444
0000c0 32 50 94 3c 41 c1 95 bd d4 af 63 3d d0 d5 b8 bc
       0.018104646 -0.07312251 0.055587605 -0.022562891
0000d0 11 a5 a3 3d bd 78 88 bd f3 9c 9d 3c bf 30 0e 3c
       0.07990468 -0.06663654 0.019239878 0.008678614
0000e0 5a 83 a7 bd f3 a0 93 3c a4 c7 95 bc 7d 4b 5c 3d
       -0.0817935 0.018021083 -0.018283673 0.05378293
0000f0 65 94 80 bd d8 f9 f2 bc 2c c3 08 3d 51 11 fa bc
       -0.06278304 -0.02966015 0.033389255 -0.030525835
000100 b6 e6 88 bd aa ec 08 bc 8c 52 76 3d 79 ae b0 bc
       -0.066846296 -0.008357206 0.060137317 -0.02156757
000110 2b cc fb bc 73 82 94 bd 1a 16 94 3c dd 42 b1 3d
       -0.030737003 -0.07251444 0.018076945 0.08655331
000120 5f 7e 94 bd ae 60 28 bd c7 f0 e9 3c aa ca 6b 3b
       -0.07250666 -0.041107826 0.028557194 0.0035978951
000130 8b 25 55 3d f7 bc 8f 3c 93 5a 9f bd 1a 33 29 3c
       0.052037757 0.01754616 -0.077809475 0.010327125
000140 96 a8 0f 3d 7f e8 8d 3d 8d 81 76 3c 88 e7 cf bc
       0.035072885 0.06929111 0.015045536 -0.025378957
000150 ff df e2 3d d8 8a 07 3d 5c 00 81 3c 33 b4 38 bd
       0.1107788 0.033091396 0.015747242 -0.045093726
000160 6c 4c 83 3d e2 b9 be 3d 3e 0b 0c 3d c3 40 0f bd
       0.06411061 0.09312798 0.03419041 -0.03497387
000170 73 10 18 bd 6a 0f ac 3b c7 b2 42 3c 94 14 ae bd
       -0.037125062 0.005250861 0.011883444 -0.08500019
000180 97 49 2c bd 88 6a 62 bd f0 86 aa 3c 78 0b b8 3b
       -0.04206237 -0.055277377 0.020816296 0.0056166016
000190 7c 0f 30 3d c7 11 82 3d e8 e0 10 bd 9f 43 1e bd
       0.042983517 0.06351047 -0.035370737 -0.038638707
0001a0 7a 76 5f bc 30 d6 07 bd ee f2 ff bc 3b ee bd bd
       -0.013639087 -0.03316325 -0.031243768 -0.092739545
0001b0 da d0 a6 3c f0 ac 28 bd 23 71 86 bd 91 20 72 3d
       0.02036326 -0.04118055 -0.06564548 0.05911309
0001c0 63 a7 55 3d 0c e5 35 3d 78 b5 1e 3d 45 fc bf 3d
       0.052161586 0.04440789 0.03874728 0.093742885
0001d0 34 36 6c bd e1 3c c7 bc 6d 9f dc 3d e0 cf e9 3c
       -0.05766888 -0.024321022 0.107725956 0.028541505
0001e0 f2 a3 6c bb d6 3e ba 3c 49 5b 08 3d e2 7b 4b bd
       -0.0036108461 0.02273504 0.03329018 -0.04967869
0001f0 65 b2 7b 3d 69 e9 04 bd d3 b8 40 bd 4a e9 01 3d
       0.061449427 -0.03244916 -0.047051262 0.031716622
000200 e8 c4 d8 3c ff e6 3c bd fe 70 ba 3c db 0d 97 3d
       0.02646108 -0.046118733 0.022758957 0.073756896
000210 5a 7f 84 3d 4e 0e ea 3c 5f b0 c0 3d a9 b5 72 3d
       0.06469603 0.028571274 0.0940864 0.059255276
000220 70 35 82 3c 6a ae 0a 3d 14 ae 67 3d b8 e4 19 bd
       0.015894622 0.03385774 0.0565625 -0.03757164
000230 ab bb 74 bd 9c 8e 4a bc 58 53 ab 3d 63 e5 3e bd
       -0.059749287 -0.012363102 0.08365506 -0.04660548
000240 f3 ea b9 3c 79 69 73 bd c4 aa 94 3a a5 4e 39 3d
       0.02269504 -0.05942676 0.0011342396 0.045241017
000250 a4 c6 06 bd 11 6e 74 bc dd f7 91 3d bc 56 a9 bb
       -0.032904282 -0.01491882 0.07127354 -0.0051678102
000260 ea 51 73 bd 02 47 9a bd 08 c9 23 3d 10 c3 98 3d
       -0.05940429 -0.07533075 0.03998664 0.0745908
000270 03 30 69 bd d6 33 62 3c 8a 8b fd 3c 83 12 04 3c
       -0.056930553 0.013806304 0.030950326 0.008061054
000280 ae ac 71 3c ba 1b 24 3d 55 72 38 3d e3 84 5d 3d
       0.014750643 0.040065505 0.04503091 0.05408181
000290 ae b3 04 3d 93 ff 5c 3d 3c e4 6a bd 0f ca c4 bc
       0.03239792 0.053954672 -0.057346568 -0.02402213
0002a0 bb 06 77 3d e1 a1 8b bd fa 5d 41 bc 97 28 44 bd
       0.060309153 -0.06817985 -0.011802191 -0.047890272
0002b0 85 26 79 bd df 69 63 bb bb 51 47 b9 a7 b7 dc 3c
       -0.06082775 -0.0034700555 -0.00019008566 0.026943041
0002c0 9b 5e 4a 3d 3e bf e2 3b ea 7e cd bc f5 92 cc 3d
       0.04940663 0.0069197705 -0.025084931 0.09988967
0002d0 cb f2 9e 3d dd 2e a1 bd 0a 44 81 bd 14 0c 63 3c
       0.07761153 -0.078702666 -0.063118055 0.01385786
0002e0 0a 12 a5 3d bd e8 12 3d 57 07 eb 3d 2f 30 18 3b
       0.08060081 0.035866488 0.11476009 0.002322208
0002f0 73 bc b1 bd ab 17 de 3b d4 0e b9 bc 5f 25 92 3d
       -0.08678522 0.006777724 -0.022590078 0.07136034
000300 8b 83 22 bc a2 0a b6 bc 54 70 c8 3d 3e e6 9e 3d
       -0.009919058 -0.022221867 0.0978705 0.07758759
000310 29 c0 5a 3d d1 68 a4 bc 0e 32 8e 3d f4 91 88 3d
       0.053405914 -0.020069512 0.06943141 0.06668463
000320 da 18 74 bd 7e 91 3d 3c 5a 2e b8 3d 2d ce 8d bd
       -0.059594013 0.011570333 0.08993216 -0.069240905
000330 b1 00 c8 3d 45 46 8e 3d e1 8b 9a bd 99 87 76 bc
       0.09765757 0.069469966 -0.07546211 -0.015046977
000340 f3 46 1e 3d 69 5e 6d bd d9 4b 57 bc 4f 05 9b bd
       0.03864188 -0.057951365 -0.013140642 -0.07569372
000350 3c 9b 94 3d 9f 07 95 bd a1 9f 99 3d b9 1d bd bd
       0.07256171 -0.07276844 0.0750115 -0.09234185
000360 9f 16 87 3d d2 00 89 3b 19 62 16 bd c9 cd 29 bd
       0.065961115 0.004181006 -0.036714647 -0.041456018
000370 f6 3e 2c bd 57 66 b3 3d 64 0e 8b 3d 5d 23 33 3d
       -0.04205223 0.08759754 0.06789854 0.043734897
000380 91 83 0f 3d 1e 76 2a 3c ae e3 90 bd 25 08 e7 3c
       0.03503758 0.010404138 -0.070746765 0.028202126
000390 9f 0b f1 3b 10 9b 84 bb 46 62 0e 3d d2 e4 70 3d
       0.0073561217 -0.004046805 0.03476169 0.05881197
0003a0 ba 40 67 3d d4 82 9b bd c7 3f 8b 3d 8a ac 28 3d
       0.056458212 -0.07593313 0.06799274 0.04118017
0003b0 80 3a 26 bc f3 47 28 bd 00 40 e5 3d 8e 8e 84 bd
       -0.010145783 -0.04108424 0.11193848 -0.06472503
0003c0 da 25 95 bd 19 22 a6 3d 8d b7 7f bd 9e 5c 8c 3d
       -0.0728261 0.08111972 -0.062430907 0.06853603
0003d0 2e 13 32 3d 58 40 a7 3d 64 47 88 bd 67 50 bc 3d
       0.043475322 0.081665695 -0.06654242 0.09195023
0003e0 2d c3 d7 3d 35 fa 16 bc 2c 1f 92 3d 01 5b 1b bd
       0.10535274 -0.009214927 0.07134852 -0.037928585
0003f0 e5 43 a2 bd 36 81 d5 bc b5 ca e9 bc e6 9b 2a bc
       -0.07923106 -0.02606259 -0.028539041 -0.010413146

output.weight f4 [1, 512]
000000 1e c6 15 3d a8 5a 82 bd c6 62 41 3d 87 06 e9 bc
       0.036565892 -0.063649476 0.04721334 -0.028445495
000010 85 cd 00 bd bc cf 5a 3d 73 07 9a 3d bc 97 35 3c
       -0.031446 0.053420767 0.07520952 0.01108354
000020 94 c9 5c 3d cc d0 39 3d d8 c2 8c bd b0 99 c9 3c
       0.053903177 0.04536514 -0.06873101 0.024609417
000030 a4 0d 62 bd 7f 48 cf bc 10 0d d9 bc 16 2e 63 bd
       -0.05518879 -0.025303124 -0.026495486 -0.055463873
000040 f3 40 45 3d c6 7f 8f 3d ec b2 88 bc 86 dc 5d 3d
       0.048157644 0.07006793 -0.01668688 0.054165386
000050 f1 81 84 bc 7c 08 d2 3c 04 9e 70 bd cb ca 6b 3d
       -0.016175242 0.025638811 -0.058744445 0.057566445
000060 f0 cc 2d 3d eb d6 e4 bc 96 03 80 3d 65 53 e7 bc
       0.04243177 -0.027934512 0.06250684 -0.028238008
000070 2a 4a 89 3c cc 3e 25 bd e9 36 30 bd 8e 90 5c 3d
       0.016758997 -0.04034309 -0.043021116 0.053848796
000080 15 cd ad 3c 99 4e 56 3c 0f 3e 20 3d 8e 4c 45 3d
       0.021215955 0.013080263 0.039121684 0.04816871
000090 60 35 27 3d 98 01 8a 3d a4 eb 38 3d 7d 0f 43 bd
       0.040822387 0.06738585 0.0451466 -0.047622193
0000a0 a3 f9 cb 3c cb f4 9c 3d 33 5e 2d bd 75 bc cf bc
       0.02489931 0.07663878 -0.042326164 -0.025358418
0000b0 fa bd 6b bd 23 4e 2a bd 36 c6 e3 bc 48 45 cf 3c
       -0.057554223 -0.041578423 -0.027804475 0.02530159
0000c0 56 06 01 bc e8 22 42 3d bb ef 31 bd 17 bc aa 3c
       -0.007875046 0.04739657 -0.043441515 0.020841641
0000d0 fb 47 d8 3c 83 3c 14 bd 68 42 4e 3d eb 13 92 bd
       0.02640151 -0.03619052 0.0503563 -0.07132705
0000e0 b2 43 98 bd 3e 2e 3b bd 8e 1b 23 bd 2f 21 75 3d
       -0.07434787 -0.045698397 -0.0398212 0.0598461
0000f0 b5 a5 f7 3d 21 8a d9 3c 17 ad 80 bd 84 40 ce bd
       0.12092153 0.026555123 -0.06283014 -0.10070899
000100 d3 b6 ef bc 03 60 12 bd d8 87 36 3d 07 19 90 bd
       -0.029261982 -0.035736095 0.044563144 -0.070360236
000110 11 f4 a5 3d d4 d0 43 bd cd 2b f6 3c be de 28 3d
       0.081031926 -0.047806576 0.030050183 0.04122805
000120 74 cb 4e 3d 42 c6 b7 bc b5 67 d7 3c 5c 0e 7b 3d
       0.050486997 -0.022433404 0.026294569 0.06129299
000130 9d 43 40 bd 2f 85 b0 3c c0 6d 84 bd 0f a2 49 bd
       -0.04693948 0.021547882 -0.06466246 -0.049226817
000140 a2 02 1a 3d 10 c5 fc 3c cb 3b 40 bd 81 f8 80 3d
       0.037600167 0.030855685 -0.046932023 0.06297398
000150 10 7f 5a 3d c1 0b 86 bd b4 c8 4b bd 2b fe 38 3d
       0.053343832 -0.06545211 -0.049751952 0.04516427
000160 3a f3 fa 3c 18 10 51 3c 5c 24 6c 3d 1b 47 0e bd
       0.030633558 0.012760185 0.057651863 -0.03473578
000170 22 5b a1 bd 86 42 8d 3c 8b 95 8a bd c0 06 32 3d
       -0.0787871 0.017243635 -0.06766804 0.04346347
000180 b9 6e 8b bd d1 38 3b 3d 13 76 99 bd 52 a1 4d bd
       -0.06808228 0.04570848 -0.07493224 -0.050202675
000190 7a 97 d6 bc a9 92 be 3d 39 9c 6c 3d 5c d4 19 bd
       -0.026195277 0.09305317 0.057766173 -0.037556037
0001a0 7e fc 52 3d fe 2a 8a 3d 3b 26 12 bd 14 b6 08 bd
       0.051510327 0.06746481 -0.03568099 -0.03337677
0001b0 2a 53 c2 bd 60 0f 4d bd 91 1e c8 bd 99 c3 1a bd
       -0.094885185 -0.05006349 -0.09771455 -0.037784193
0001c0 94 ea a5 bc 4c 46 a4 3d b6 af 18 3d 87 72 aa 3c
       -0.020253457 0.080212206 0.037276946 0.020806564
0001d0 c4 c9 0e bd 49 ac 65 3d 15 bc 82 3d 74 2a 44 bc
       -0.034860387 0.056072507 0.0638353 -0.011973012
0001e0 ba ea d8 3c e6 14 1f bd 3d 6c 1e 3d 04 a3 40 bd
       0.026479114 -0.03883829 0.038677443 -0.047030464
0001f0 19 b7 b9 3d a0 7b 4e bd 43 c2 c1 3d 77 95 38 3d
       0.09068126 -0.050410867 0.094608806 0.045064416
000200 c7 5c a1 3c 82 de 16 3d 73 6e 8b 3d 1d d8 33 3d
       0.01969756 0.036833294 0.06808176 0.043907274
000210 3b 80 7a bd 86 ba 84 3c d9 00 42 3c bd b6 27 3d
       -0.061157446 0.016202223 0.011841022 0.040945757
000220 74 5a c5 bc cf 26 c7 bd 31 0d 0d 3b 76 27 32 bc
       -0.024090983 -0.09724199 0.0021522755 -0.010873666
000230 9f a7 5e 3d 3a db d3 bc 5b 1e 8a bd 02 98 0d 3c
       0.054359075 -0.025861371 -0.06744071 0.0086421985
000240 0e 1c 81 bc a7 49 1d 3d 8c cf dd 3c 3f 09 72 bc
       -0.015760448 0.03840032 0.027076505 -0.014772712
000250 fc 0f 50 3d b1 9f 97 3b 77 79 57 bd 0b 5d 22 3d
       0.050796494 0.004627191 -0.052606072 0.039639514
000260 a7 43 3f bd b4 80 ad 3d 47 9e 14 3d 1f a8 03 3d
       -0.046695378 0.08471814 0.036283758 0.032142755
000270 47 2b 37 3d 06 13 97 3c c2 20 af bd 57 ec 7c bd
       0.044719007 0.018441688 -0.0855117 -0.06174883
000280 72 3e e2 bb d4 84 25 bd b2 a3 b8 3c 14 5e 8a 3c
       -0.0069044167 -0.040409878 0.022538994 0.016890563
000290 90 5c 26 3d c0 ae ea 3c 14 00 90 3d a9 f6 b8 3d
       0.04061562 0.02864778 0.07031265 0.09031422
0002a0 22 8c 77 bd 46 5b 48 bd 91 2b 68 bd 00 6a 90 bd
       -0.060436375 -0.04891517 -0.056682173 -0.07051468
0002b0 83 22 b4 3c 6c 81 bd bd 3e da fb bc 5b 80 e7 bc
       0.021989113 -0.09253201 -0.030743714 -0.028259447
0002c0 2a 34 c3 bc f9 cf 7d bc bd f5 7b 3d 53 3e eb 3c
       -0.023828585 -0.015491479 0.06151365 0.028716242
0002d0 53 10 89 3d a6 c9 c9 3d 63 30 b6 3c ac 53 9e bc
       0.06692567 0.098529145 0.02223987 -0.019327007
0002e0 fb 80 07 3d 31 f2 be bc c2 43 47 3d ce 14 75 bd
       0.03308199 -0.023308845 0.048648603 -0.059834294
0002f0 3d f6 0d bd 23 a6 2a bd cb 4d c0 bd 03 2a c9 3c
       -0.03465866 -0.041662347 -0.09389838 0.024556166
000300 bb 46 9b 3d ec c4 ad 3d cb 89 ef 3c 93 57 17 3d
       0.0758185 0.084848255 0.02924051 0.03694875
000310 fb 6d 33 3d 99 6b 9f bc 5e a7 38 3d 39 ca 4c 3d
       0.043806057 -0.019460486 0.04508149 0.049997542
000320 a3 51 ca 3d 8c 56 d8 3c c0 1d 0b 3d 53 ec 50 3d
       0.09878852 0.026408456 0.03396392 0.051006626
000330 f2 85 f5 3c 65 81 34 3d b1 ff 09 3e 0a 4c 72 3d
       0.029971097 0.044068713 0.13476445 0.059154548
000340 94 01 2e bd 7e a6 b7 3d ff 8a 2c bd 86 94 bb bd
       -0.042481974 0.08967303 -0.042124745 -0.09159188
000350 85 7d 88 bd 4b 9b 82 bd 9c 42 fb 3c 8e fa 2e bd
       -0.06664566 -0.06377276 0.03067141 -0.042719416
000360 90 bd 58 3c 7d 59 58 bd 9e 06 4d 3d fe 14 90 bd
       0.013228789 -0.052819718 0.05005514 -0.07035254
000370 9d f7 fe 3c 98 0c a7 3c 31 d3 5b 3d 55 71 60 bd
       0.03112393 0.020391747 0.053668205 -0.05479558
000380 31 a4 4a bb e1 95 52 bd 56 df 97 bc 81 96 fe bc
       -0.003092062 -0.051412467 -0.018539112 -0.031077625
000390 ad 5c bd 3c 5e 59 b1 3c 4f e0 1c bd a7 21 66 3d
       0.02311548 0.021649059 -0.038299855 0.056184437
0003a0 5e 40 f3 bc 67 54 80 bd 1f 3d ad 3d 8c f2 96 bd
       -0.029693779 -0.062660985 0.084589235 -0.07370481
0003b0 73 e0 1e bd b2 2f 91 3d 4e a6 79 3d 18 2a aa 3d
       -0.03878827 0.07089175 0.060949616 0.0830881
0003c0 ea b8 70 bd 17 e2 df 3c 81 bd 29 3d 72 72 75 3d
       -0.058770098 0.027329488 0.04144049 0.059923597
0003d0 2d d7 24 bd 99 06 26 3d 84 97 bc 3c 7c 7b be 3c
       -0.04024427 0.040533636 0.023021467 0.023252241
0003e0 3a f2 22 3d c5 41 7b bd 88 77 c7 3d c1 76 39 bd
       0.039781787 -0.06134202 0.09739596 -0.04527927
0003f0 1e da 81 bc 95 38 4d 3d 32 80 70 bd 7d be 82 bd
       -0.015851077 0.05010279 -0.058716007 -0.06383989
